weights/TIN1.pth (torch_old, 351126 bytes, 29 tensors)

conv1_1.weight f4 [16, 3, 3, 3]
-1.5055403e-07 7.36801e-08 2.5512579e-08 -1.4088243e-07 6.099927e-08 2.0960327e-08 -1.5471429e-07 6.688473e-08
3.591702e-08 -1.977592e-07 1.3642472e-07 7.3696924e-08 -1.884241e-07 1.2157307e-07 6.9129e-08 -2.0461273e-07
1.2708128e-07 8.2948006e-08 -1.9853044e-07 5.476801e-08 -1.0764248e-08 -1.8738851e-07 4.0901185e-08 -1.4641035e-08
-2.0524665e-07 4.5852712e-08 -5.95281e-10 -5.102691e-08 2.497329e-08 8.6436485e-09 -4.7752014e-08 2.0678174e-08
7.1043216e-09 -5.243986e-08 2.2670244e-08 1.2169409e-08 -6.701622e-08 4.6266575e-08 2.4973493e-08 -6.38548e-08
4.1236483e-08 2.3421158e-08 -6.934302e-08 4.310367e-08 2.8105337e-08 -6.727905e-08 1.8569429e-08 -3.6467942e-09
-6.350631e-08 1.3863275e-08 -4.965465e-09 -6.9552456e-08 1.5547153e-08 -2.0144733e-10 -2.5354992e-13 -2.70648e-13
5.3444374e-14 -1.0043584e-13 -2.2778638e-13 -1.2280864e-13 -9.047965e-15 -1.428922e-13 -1.4169536e-13 -4.8267505e-14
1.1844867e-13 -6.82676e-14 2.2842204e-13 -2.3625592e-13 3.337141e-14 -2.325351e-13 -1.213533e-13 5.121952e-14
8.3027945e-14 7.418379e-14 -1.7915914e-13 5.979011e-14 1.3008081e-13 -2.1577878e-13 -1.4920342e-13 -1.4533282e-13
-2.2870966e-13 -0.07903523 -0.06927867 -0.0173308 -0.039828908 -0.012072524 0.04188767 0.022085033
0.059280287 0.09545111 -0.09125488 -0.07203343 -0.011226155 -0.05006985 -0.013183767 0.04855099
0.01507495 0.060443427 0.103184655 -0.07621019 -0.054230537 0.0059442874 -0.048062764 -0.008880529
0.05192194 0.0018568251 0.049019184 0.09060235 6.059108e-10 1.5535351e-09 1.9364716e-09 7.3848283e-10
1.1246963e-09 1.2545307e-09 4.9909292e-11 4.5625997e-10 1.9436504e-10 -1.3265331e-08 -1.3768223e-08 -1.2520913e-08
-1.4090762e-08 -1.5566856e-08 -1.4163483e-08 -1.3509433e-08 -1.5042712e-08 -1.40583465e-08 -1.6481863e-08 -1.7759046e-08
-1.6214015e-08 -1.7758921e-08 -2.0035563e-08 -1.814635e-08 -1.6475777e-08 -1.8147748e-08 -1.7750086e-08 1.993743e-13
-1.3536199e-13 -6.5410297e-14 8.9489587e-14 -2.7080776e-13 -2.1045286e-13 -1.4804499e-13 1.777343e-13 -2.0689979e-13
-2.6962566e-13 -1.8020894e-13 2.703428e-13 1.2766551e-13 -1.1743473e-13 -1.9214323e-13 -1.4471863e-13 -9.37908e-14
4.32144e-14 1.2155705e-13 -1.00869054e-13 -1.6052571e-13 -2.660393e-13 9.955236e-14 7.711058e-14 4.2981203e-14
2.0061796e-13 -1.5615699e-13 -0.017846882 -0.0789579 -0.115557835 0.044445712 -0.015799826 -0.07231358
0.11182412 0.06972698 0.011404739 0.005130614 -0.067241244 -0.11686337 0.08292293 0.010565078
-0.06173802 0.16627672 0.11260054 0.037013233 0.016982894 -0.040213287 -0.07697537 0.08278372
0.02495405 -0.03397197 0.15537809 0.11510081 0.052369703 0.025329156 -0.022821441 -0.054901693
0.04973874 -0.008663007 -0.053136475 0.059689492 0.022172468 -0.013508606 0.028216276 -0.032178655
-0.07562004 0.060665954 -0.011147298 -0.06866674 0.07590865 0.024571227 -0.024762986 0.032331202
-0.021598255 -0.061603114 0.06602851 -0.00013368904 -0.05470717 0.08118374 0.03435956 -0.012943035
0.107687175 0.04331952 -0.016984455 0.07367823 -0.014899438 -0.07517069 0.021347769 -0.05816668
-0.09299556 0.15245189 0.07234511 0.0009929155 0.10449842 -0.0018419236 -0.07421363 0.03539917
-0.062128324 -0.10787701 0.15212522 0.085101865 0.025302444 0.10366167 0.01119487 -0.049219046
0.035508554 -0.04800197 -0.08222812 -0.053846188 -0.0518284 -0.052323945 -0.04604708 -0.0461641
-0.04706142 -0.05081739 -0.05103656 -0.05379798 -0.05547467 -0.047270026 -0.04974852 -0.045128282
00000000: faa7 21b4 103a 9e33 c126 db32 7845 17b4
00000010: b4fe 8233 3f0c b432 8a1f 26b4 45a2 8f33
00000020: 2e43 1a33 a357 54b4 247c 1234 5043 9e33
00000030: 9f51 4ab4 c089 0234 1274 9433 85b3 5bb4
00000040: d673 0834 2621 b233 a22b 55b4 103a 6b33
00000050: aaed 38b2 f634 49b4 54ab 2f33 f487 7bb2
00000060: c561 5cb4 97ef 4433 2da1 23b0 ae28 5bb3
00000070: d884 d632 2b7f 1432 e517 4db3 c99f b132
00000080: 461a f431 3c3a 61b3 65bc c232 a011 5132
00000090: 8eea 8fb3 a3b6 4633 4b85 d632 8c20 89b3
000000a0: fe1b 3133 ac2f c932 bae9 94b3 fd20 3933
000000b0: 4a6c f132 0d7b 90b3 9b82 9f32 159b 7ab1
000000c0: f760 88b3 542b 6e32 b19c aab1 de5c 95b3
000000d0: 8d8c 8532 627e 5daf 65bc 8eaa 7d5c 98aa
000000e0: 2bb1 7029 5229 e2a9 7a3b 80aa 2e45 0aaa
000000f0: 60fe 22a8 dfe1 20aa e888 1faa a560 59a9
00000100: 815c 052a 98b9 99a9 1697 802a 1100 85aa
00000110: 9e4a 1629 d7e7 82aa b5a1 08aa 16ac 6629
00000120: 5af6 ba29 0b0c a729 1bb7 49aa a7a2 8629
00000130: 3e75 122a 00f2 72aa f5fc 27aa 55a1 23aa
00000140: 89c0 80aa 39dd a1bd fae1 8dbd 52f9 8dbc
00000150: a323 23bd d6cb 45bc 6892 2b3d aceb b43c
00000160: e3cf 723d df7b c33d d7e3 babd 4386 93bd
00000170: e8ed 37bc 0b16 4dbd ba00 58bc 67dd 463d
00000180: ecfc 763c 8793 773d 7a52 d33d 1714 9cbd
00000190: d720 5ebd 4cc8 c23b 76dd 44bd a37f 11bc
000001a0: 1aac 543d b660 f33a 57c8 483d ba8d b93d
000001b0: 2f8d 2630 2884 d530 c512 0531 1cfe 4a30
000001c0: bc93 9a30 e06b ac30 de80 5b2e e2d4 fa2f
000001d0: e5b4 552f 8be5 63b2 4989 6cb2 8f1b 57b2
000001e0: d413 72b2 e1b7 85b2 a853 73b2 1d17 68b2
000001f0: 4637 81b2 4385 71b2 0094 8db2 8e8c 98b2
00000200: ff46 8bb2 488c 98b2 ab1a acb2 3fe0 9bb2
00000210: 9e86 8db2 52e3 9bb2 da78 98b2 bb79 602a
00000220: 7067 18aa 784a 93a9 3c83 c929 8373 98aa
00000230: e8f2 6caa 10af 26aa 6d1c 482a cef2 68aa
00000240: 27c9 97aa b1e5 4aaa 8130 982a 14bd 0f2a
00000250: 4238 04aa 8455 58aa 4ef0 22aa b732 d3a9
00000260: d09e 4229 6fdc 082a 0d23 e3a9 63bc 34aa
00000270: 4ec4 95aa 072c e029 39a3 ad29 f491 4129
00000280: 31e0 612a 30d1 2faa a033 92bc aeb4 a1bd
00000290: 96a9 ecbd b50c 363d a36e 81bc 2419 94bd
000002a0: 0b04 e53d 05cd 8e3d f1da 3a3c b61e a83b
000002b0: c7b5 89bd 1056 efbd 7fd3 a93d 2619 2d3c
000002c0: 02e1 7cbd 7244 2a3e 1d9b e63d 309b 173d
000002d0: b61f 8b3c b0b6 24bd 43a5 9dbd 838a a93d
000002e0: 706c cc3c 3126 0bbd 6f1b 1f3e f9b9 eb3d
000002f0: 9d81 563d 177f cf3c 08f4 babc 99e0 60bd
00000300: d9ba 4b3d 49ef 0dbc a2a5 59bd f87c 743d
00000310: 09a3 b53c 3353 5dbc d225 e73c c4cd 03bd
00000320: aede 9abd dd7c 783d 28a3 36bc 26a1 8cbd
00000330: ff75 9b3d 9949 c93c bfdb cabc b96d 043d
00000340: d3ee b0bc 8c53 7cbd f539 873d e12e 0cb9
00000350: a014 60bd a943 a63d 9cbc 0c3d 060f 54bc
00000360: 188b dc3d cf6f 313d fc22 8bbc 9de4 963d
00000370: c61c 74bc 17f3 99bd 84e1 ae3c 2f40 6ebd
00000380: 7574 bebd 591c 1c3e ac29 943d b724 823a
00000390: 4503 d63d b36c f1ba 51fd 97bd b8fe 103d
000003a0: 457a 7ebd 9fee dcbd b7c6 1b3e e349 ae3d
000003b0: 1247 cf3c 924c d43d b06a 373c e999 49bd
000003c0: 6b71 113d b79d 44bd 3767 a8bd d28d 5cbd
000003d0: 044a 54bd a251 56bd dd9b 3cbd 9116 3dbd
000003e0: 7ac3 40bd e525 50bd b60b 51bd 455b 5cbd
000003f0: 6839 63bd 379e 41bd 1bc5 4bbd 6fd8 38bd

conv1_1.bias f4 [16]
-5.7946914e-09 -1.963414e-09 -2.0718751e-13 -0.010102737 7.628697e-10 1.4149809e-13 0.012789868 -0.0039899764
0.0022591308 0.0038235113 0.017271748 0.017901007 -0.0020115506 0.002658324 0.004818907 0.000693092
00000000: a51a c7b1 bfec 06b1 bc45 69aa f385 25bc
00000010: 2fb2 5130 0c50 1f2a 988c 513c 59be 82bb
00000020: ed0d 143b e093 7a3b 7b7d 8d3c 22a5 923c
00000030: 38d4 03bb 4737 2e3b ece7 9d3b 9eb0 353a

conv1_2.weight f4 [16, 16, 3, 3]
-2.4519893e-09 -1.6975323e-09 -6.6235406e-10 -2.4454552e-09 -1.6796468e-09 -6.4931815e-10 -2.4890368e-09 -1.7214845e-09
-6.7392164e-10 -8.308626e-10 -5.75479e-10 -2.2477664e-10 -8.2865115e-10 -5.6949984e-10 -2.2006921e-10 -8.433371e-10
-5.83556e-10 -2.2851221e-10 9.394552e-14 -7.261459e-14 -2.0760164e-14 -3.3861938e-14 4.5874207e-14 -5.9100016e-14
1.0552178e-13 9.5064385e-14 -5.993001e-14 -0.002116206 -0.0020485625 -0.0019166052 -0.0020955815 -0.0020837248
-0.0019495266 -0.0018959197 -0.0019095008 -0.0017076896 -3.338208e-09 -9.063876e-12 -3.2049259e-09 1.04706355e-10
3.7935735e-09 3.859109e-10 -2.9714498e-09 5.5506083e-10 -2.5721583e-09 -7.2271284e-14 1.0575411e-13 -8.906804e-15
-1.1610031e-13 1.4920028e-14 7.611982e-14 6.016219e-14 4.9299174e-14 1.0194417e-13 -0.00035025555 -0.0007763352
-0.0010213588 -0.00044421255 -0.0008791696 -0.0009878611 0.0002806063 -0.0003352497 -0.0004207187 -0.0012781367
-0.0014932249 -0.0016746823 -0.0013433292 -0.0015299453 -0.0016582429 -0.0012165717 -0.0014712168 -0.0016220505
-0.00091230834 -0.0014778404 -0.0015867355 -0.0014206233 -0.0018112694 -0.0019050903 -0.0013896903 -0.0017936614
-0.0020305056 -0.00033494024 -0.0004945628 -0.00050117844 -0.00027682428 -0.0004291367 -0.00042732147 -6.8378984e-05
-0.00021140538 -0.00020318836 0.0078094276 0.0075214724 0.007821887 0.0076560513 0.0073596663 0.007646401
0.008176305 0.007861881 0.008137888 -0.00014922667 -0.00018064484 0.00037863723 -7.878435e-05 -0.000283983
0.00020050399 0.00059731456 0.00035057325 0.0009649232 -1.4543958e-05 -1.2740563e-05 -1.6531958e-05 -8.726925e-06
-6.9089288e-06 -1.0604587e-05 -8.531173e-06 -6.474087e-06 -1.0244293e-05 0.0011545338 0.000784739 0.0010812689
0.0007415626 0.0004891459 0.00068720017 0.00077574677 0.0006460061 0.00077326916 -0.0057360884 -0.0057852925
-0.005754899 -0.0057954276 -0.0058387765 -0.005805863 -0.005766262 -0.005806207 -0.0057667894 -0.0026216332
-0.0026640017 -0.00224782 -0.0029211803 -0.0029470616 -0.0026556917 -0.003214594 -0.0031002641 -0.0027491103
9.523813e-08 9.743384e-09 4.016304e-09 9.737053e-08 1.106275e-08 4.83929e-09 9.997508e-08 1.2868016e-08
5.6775797e-09 3.226406e-08 3.3018657e-09 1.3610322e-09 3.298662e-08 3.7495176e-09 1.6400035e-09 3.3868925e-08
4.36166e-09 1.9242181e-09 -4.184671e-14 6.689687e-14 -6.7586046e-14 6.3897475e-14 -7.828282e-14 2.8023585e-15
4.606428e-14 3.6511545e-14 3.628493e-14 0.008204416 -0.004229136 -0.0035810426 0.0366724 0.028367063
0.029599464 0.0212005 0.010886543 0.01054893 -1.2626847e-09 -2.312239e-09 -4.4385016e-09 8.731194e-10
-1.9208084e-10 -2.3099425e-09 -6.1546115e-11 -1.1060585e-09 -3.163429e-09 1.210731e-13 -3.4740457e-14 -3.3609434e-14
-2.2685648e-14 -7.051583e-14 -1.0152587e-13 -7.2392626e-14 -1.777966e-14 4.9396224e-14 -0.029774692 -0.005364174
-0.04164 0.0057875505 0.03340048 0.0061940677 -0.02636544 0.00423913 -0.023571573 -0.0044568195
0.012833537 -0.010715481 0.005716891 0.022075951 0.0021261922 -0.00072942476 0.017883485 -0.0030654916
-0.012586864 0.009332568 -0.032678854 -0.0056940536 0.0168848 -0.023412084 0.011875078 0.036278468
0.0039208024 -0.001786741 0.00039469235 -0.003580357 -0.002222036 -4.090958e-06 -0.0039450936 -0.0068563092
-0.0043964577 -0.00823181 0.021063838 0.021911459 0.008944951 0.029708058 0.030749239 0.017907035
0.024261165 0.025777789 0.013060935 -0.006486921 -0.03133833 -0.0380768 0.028803336 0.010443077
0.0040606135 0.009263046 -0.011492709 -0.021295292 0.00080544193 0.00074879354 0.00037414936 0.0009052072
00000000: da7f 28b1 9c4e e9b0 0611 36b0 e70c 28b1
00000010: 51d9 e6b0 b47b 32b0 990b 2bb1 5a99 ecb0
00000020: 053f 39b0 c262 64b0 bc2f 1eb0 0025 77af
00000030: 24c7 63b0 fd8a 1cb0 faf7 71af 93d0 67b0
00000040: 1a68 20b0 7840 7baf e88b d329 7683 a3a9
00000050: aefd baa8 2880 18a9 5c99 4e29 d714 85a9
00000060: 2a9d ed29 e310 d629 4cf3 86a9 0cb0 0abb
00000070: 2d41 06bb 9936 fbba 0656 09bb 1a8f 08bb
00000080: 4287 ffba 8280 f8ba 3748 faba 8ed4 dfba
00000090: 6066 65b1 1274 1fad a73d 5cb1 7040 e62e
000000a0: a058 8231 2128 d42f 4c32 4cb1 ef92 1830
000000b0: e3c1 30b1 8fbd a2a9 1823 ee29 6273 20a8
000000c0: a3b7 02aa 3e63 8628 1768 ab29 2479 8729
000000d0: 1406 5e29 d08e e529 81a2 b7b9 f982 4bba
000000e0: 1ddf 85ba 33e5 e8b9 1378 66ba 1e7b 81ba
000000f0: 571e 9339 74c4 afb9 e893 dcb9 2787 a7ba
00000100: 50b8 c3ba 0381 dbba a612 b0ba 7288 c8ba
00000110: 6659 d9ba 5f75 9fba d8d5 c0ba fc9a d4ba
00000120: fa27 6fba 18b4 c1ba 02fa cfba 3534 baba
00000130: 1e68 edba 39b4 f9ba 4526 b6ba 4a19 ebba
00000140: 3b12 05bb eb9a afb9 8ca5 01ba 8461 03ba
00000150: ba22 91b9 c1fd e0b9 1e0a e0b9 b066 8fb8
00000160: b3ac 5db9 f60e 55b9 3ae6 ff3b af76 f63b
00000170: 5f27 003c 9ddf fa3b 5b29 f13b a98e fa3b
00000180: e9f5 053c 1ecf 003c c754 053c bb79 1cb9
00000190: 7b6b 3db9 d483 c639 0739 a5b8 8ee3 94b9
000001a0: 613e 5239 1a95 1c3a 25cd b739 e6f2 7c3a
000001b0: d301 74b7 4dc0 55b7 1cae 8ab7 dc69 12b7
000001c0: 3fd3 e7b6 5bea 31b7 1c21 0fb7 fc3b d9b6
000001d0: e7de 2bb7 ba53 973a f1b6 4d3a 5db9 8d3a
000001e0: 6c65 423a 073a 003a 3925 343a 7c5b 4b3a
000001f0: bc58 293a 37b5 4a3a ccf5 bbbb 8d92 bdbb
00000200: 9793 bcbb 92e7 bdbb 3553 bfbb 1c3f bebb
00000210: e9f2 bcbb ff41 bebb 56f7 bcbb b5cf 2bbb
00000220: 8896 2ebb 2950 13bb 4671 3fbb 7d23 41bb
00000230: 1d0b 2ebb f0ab 52bb cd2d 4bbb 6b2a 34bb
00000240: b785 cc33 db63 2732 c9ff 8931 041a d133
00000250: 7d0e 3e32 d846 a631 e2b1 d633 2212 5d32
00000260: 8514 c331 b692 0a33 09e7 6231 100f bb30
00000270: 2cad 0d33 1bd5 8031 7e66 e130 4777 1133
00000280: 91dd 9531 343b 0431 f975 3ca9 6ca3 9629
00000290: b430 98a9 63e2 8f29 f946 b0a9 64ee 4927
000002a0: 8074 4f29 f26e 2429 ad69 2329 d16b 063c
000002b0: 9094 8abb edaf 6abb cc35 163d 0b62 e83c
000002c0: 937a f23c acac ad3c 795d 323c 6bd5 2c3c
000002d0: c58a adb0 57e5 1eb1 7981 98b1 5100 7030
000002e0: f331 53af f0bc 1eb1 6257 87ae f903 98b0
000002f0: a263 59b1 f250 082a 0575 1ca9 0a5d 17a9
00000300: 8b55 cca8 9cc9 9ea9 ae9d e4a9 8203 a3a9
00000310: 1b25 a0a8 f875 5e29 0eea f3bc f4c5 afbb
00000320: b48e 2abd 7ea5 bd3b f1ce 083d 9bf7 ca3b
00000330: 56fc d7bc 66e8 8a3b 2c19 c1bc 830a 92bb
00000340: c143 523c fc8f 2fbc c254 bb3b a0d8 b43c
00000350: 9657 0b3b de36 3fba 6380 923c 6ae6 48bb
00000360: 2239 4ebc a1e7 183c 43da 05bd 2f95 babb
00000370: fe51 8a3c b3ca bfbc b08f 423c bb98 143d
00000380: 137a 803b 1431 eaba b6ee ce39 6ca4 6abb
00000390: 949f 11bb 1045 89b6 d845 81bb e4aa e0bb
000003a0: 2910 90bb b7de 06bc 128e ac3c a97f b33c
000003b0: d88d 123c 505e f33c d4e5 fb3c c6b1 923c
000003c0: 5abf c63c f12b d33c 88fd 553c 3d90 d4bb
000003d0: 9f5c 00bd 6bf6 1bbd f9f4 eb3c 7119 2b3c
000003e0: e50e 853b 08c4 173c ea4b 3cbc 7773 aebc
000003f0: 4b24 533a af4a 443a 7a29 c439 6d4b 6d3a

conv1_2.bias f4 [16]
-0.0009153052 0.019209279 -0.017456703 0.0087733865 -0.016160544 0.04978675 -0.0021544497 -0.018853528
0.04815524 0.00020598953 -0.01418426 0.010299939 -0.005535735 -0.0062579666 -0.022198547 -0.019228546
00000000: 18f1 6fba c75c 9d3c 5c01 8fbc 40be 0f3c
00000010: 1e63 84bc 31ed 4b3d ab31 0dbb b772 9abc
00000020: 6e3e 453d e5fe 5739 1965 68bc 13c1 283c
00000030: 1c65 b5bb a10f cdbb bad9 b5bc 2f85 9dbc

em1_1.conv.weight f4 [32, 16, 3, 3]
1.7113486e-09 -4.2395576e-10 8.341282e-09 2.9774825e-09 -2.6544794e-10 6.7691914e-09 6.851768e-09 8.941219e-11
6.4932926e-09 5.7983196e-10 -1.4405377e-10 2.8267695e-09 1.0092107e-09 -9.011238e-11 2.2939e-09 2.323436e-09
3.011266e-11 2.2003612e-09 -1.1775349e-14 9.7709655e-15 9.047189e-15 -2.5307824e-15 4.933771e-15 1.35056236e-14
1.0784822e-15 6.376038e-15 -1.7523365e-14 -0.005585938 -0.004852453 -0.0030538326 -0.0029905657 -0.0012835424
-0.0007046306 0.003484394 0.00068184367 -0.004893756 -3.4880667e-09 -3.3197811e-09 -3.2535104e-09 -3.2149972e-09
-3.0992042e-09 -3.0829528e-09 -3.4289092e-09 -3.2870944e-09 -3.241546e-09 2.233453e-14 -1.6177187e-14 1.2637559e-14
-1.7171614e-14 -9.718036e-15 -2.237144e-14 2.194155e-14 1.0425158e-16 1.5125425e-14 -0.005600632 -0.0028147297
-0.0033943027 0.005169533 -0.009548796 -0.0009946045 0.017294424 0.0039983043 -0.0055057877 -0.0055677826
-0.000741193 -0.0018125698 0.0023952916 -0.004371262 -0.0010893267 0.010009789 0.004281529 -0.0013565108
-0.007038419 -0.000512461 -0.007098653 0.0048167794 0.0029515757 -0.00056722236 0.005719025 -0.0024927738
-0.0009168174 0.0012016644 -0.0031511092 -0.00739545 0.0021466406 -0.0017686305 -0.0061839507 0.0043883654
0.00032558432 -0.003304541 0.0027060949 0.0019123316 -0.0047573694 0.0061912998 0.00628678 0.00080915564
0.009140556 0.0063280114 0.0021031515 0.0023227918 -0.0035585514 -0.006817555 0.004199323 0.0051611206
-0.0030358848 0.0026164155 0.0056090276 -0.007771495 0.0005512392 -6.236786e-05 -0.0007916099 0.0010671132
0.00042254175 -0.0005709219 0.0012990456 0.0006871519 -0.00031354075 -0.004127868 -0.008561291 -0.008807806
0.0014054762 -0.0014814974 -0.005185472 0.0006960191 0.0011222735 -0.0017804094 0.004733165 0.004875358
0.0014583364 0.003945413 0.002812901 -0.0017350191 -0.0043001026 -0.0036746245 -0.008696084 -0.0052178437
-0.0053780484 -0.0028406994 0.00055284705 0.00067578384 -0.003547343 -0.0037393458 0.0030816689 -0.003557285
1.7229572e-13 2.0719637e-13 5.208123e-14 1.8009502e-13 2.4741564e-13 5.2740235e-14 1.593351e-13 2.1471206e-13
5.3350262e-14 3.8810372e-14 6.8539955e-14 -2.5989522e-14 6.9981943e-14 7.8579944e-14 1.7910437e-14 5.878401e-14
6.7024985e-14 3.700714e-15 -1.2232277e-14 1.295503e-14 -2.0145107e-15 9.111119e-15 -5.242078e-16 2.5721566e-15
-1.9772807e-14 -3.053672e-14 -2.3931667e-15 -3.912746e-10 -2.775556e-10 -6.310829e-11 -2.7559574e-10 -8.147243e-11
4.3498878e-11 4.504442e-12 4.1520745e-11 -5.9687116e-11 -2.2368119e-12 -2.2989438e-12 -2.6068971e-12 -2.42534e-12
-2.5728187e-12 -3.0063875e-12 -2.4891398e-12 -2.7037873e-12 -3.3162652e-12 -5.613651e-15 -4.3567402e-15 -1.23089456e-14
1.011976e-14 7.306397e-15 1.0369433e-15 2.117581e-15 3.998847e-15 -1.10317715e-14 -5.551112e-10 -8.868467e-10
-1.1102224e-09 -3.290592e-10 -6.6320627e-10 -9.40651e-10 -1.3297469e-11 -3.0914335e-10 -6.99728e-10 -1.0507675e-10
-2.6811417e-10 -3.4540568e-10 -6.93889e-11 -1.9461675e-10 -3.064072e-10 -1.6304473e-11 -1.1949852e-10 -2.8887054e-10
-5.5326055e-10 -8.785701e-10 -1.1159346e-09 -6.095852e-10 -9.952553e-10 -1.3007218e-09 -5.9352745e-10 -1.0226505e-09
-1.4044941e-09 -2.0992993e-10 -2.446826e-10 -2.3396965e-10 -2.1648705e-10 -2.4744776e-10 -2.0877744e-10 -1.8873832e-10
-1.9456269e-10 -1.5558706e-10 -1.0223098e-12 -2.2652423e-11 8.673612e-12 -2.0825607e-11 -4.1670677e-11 7.1353123e-13
-3.469445e-11 -4.046854e-11 4.4695476e-12 -1.424297e-09 -1.1102224e-09 -4.1756498e-10 -1.1102224e-09 -5.551112e-10
-4.8830006e-11 -5.375727e-10 -2.3492577e-10 -1.9085274e-10 -1.2957213e-11 -6.1109767e-12 -1.6140854e-12 -1.3035576e-11
00000000: ba34 eb30 7812 e9af 594d 0f32 6d9c 4c31
00000010: 7aee 91af 7096 e831 ca6c eb31 979e c42e
00000020: 9b1b df31 0c62 1f30 8863 1eaf 0e41 4231
00000030: 72b4 8a30 c328 c6ae b7a2 1d31 52aa 1f31
00000040: d76f 042e 2a35 1731 3620 54a8 a004 3028
00000050: ccfa 2228 b25c 36a7 01c2 b127 b24b 7328
00000060: f86c 9b26 92b8 e527 21d6 9da8 3f0a b7bb
00000070: 5301 9fbb cf22 48bb 5efd 43bb 893c a8ba
00000080: f6b6 38ba 6e5a 643b c1bd 323a cd5b a0bb
00000090: b8b2 6fb1 3522 64b1 5c94 5fb1 d4ee 5cb1
000000a0: c7f9 54b1 e1db 53b1 02a2 6bb1 2de3 61b1
000000b0: e1c1 5eb1 eb2b c928 0eb6 91a8 74a8 6328
000000c0: 0cab 9aa8 8810 2fa8 0781 c9a8 c5a1 c528
000000d0: 4563 f024 db3c 8828 8285 b7bb 5477 38bb
000000e0: f372 5ebb 3065 a93b 8e72 1cbc 645d 82ba
000000f0: 09ad 8d3c 3504 833b e569 b4bb f271 b6bb
00000100: 9f4c 42ba c093 edba 53fa 1c3b ce3c 8fbb
00000110: bdc7 8eba 1900 243c 124c 8c3b f3cc b1ba
00000120: 8aa2 e6bb ad56 06ba d19b e8bb 13d6 9d3b
00000130: 396f 413b a6b1 14ba a966 bb3b ce5d 23bb
00000140: 9356 70ba 2b81 9d3a d782 4ebb 8855 f2bb
00000150: a7ae 0c3b 64d1 e7ba bda2 cabb 47cc 8f3b
00000160: 30b3 aa39 0091 58bb bd58 313b 33a7 fa3a
00000170: b5e3 9bbb 63e0 ca3b 5501 ce3b 841d 543a
00000180: 45c2 153c 355b cf3b 07d5 093b fb39 183b
00000190: 9636 69bb cc65 dfbb 799a 893b 9e1e a93b
000001a0: b2f5 46bb 2b78 2b3b efcb b73b 06a8 febb
000001b0: 0981 103a 7dcb 82b8 0b84 4fba 61de 8b3a
000001c0: 9888 dd39 eca9 15ba bd44 aa3a fc21 343a
000001d0: ba62 a4b9 1143 87bb a844 0cbc 9e4e 10bc
000001e0: f537 b83a ce2e c2ba e4ea a9bb 0d75 363a
000001f0: 4019 933a a05c e9ba aa18 9b3b 78c1 9f3b
00000200: a625 bf3a 8648 813b a658 383b 9569 e3ba
00000210: e0e7 8cbb f8d1 70bb 057a 0ebc 72fa aabb
00000220: 573a b0bb 072b 3abb f0ec 103a 1627 313a
00000230: 8a7a 68bb d00f 75bb d3f5 493b 5721 69bb
00000240: dcfc 412a 4a48 692a 928d 6a29 dbc4 4a2a
00000250: 5a48 8b2a 5a85 6d29 3765 332a 8abe 712a
00000260: aa44 7029 50c9 2e29 9856 9a29 c217 eaa8
00000270: d895 9d29 41f2 b029 a852 a128 ad5e 8429
00000280: 46ed 9629 1055 8527 6c5b 5ca8 8860 6928
00000290: 2a29 11a7 9f21 2428 b517 17a6 ea57 3927
000002a0: fd18 b2a8 7186 09a9 2272 2ca7 011b d7af
000002b0: 7a96 98af cfc6 8aae a782 97af e728 b3ae
000002c0: 624f 3f2e 687c 9e2c 349c 362e dc40 83ae
000002d0: d266 1dac 17c6 21ac af71 37ac 0bab 2aac
000002e0: c80b 35ac 438e 53ac 5b28 2fac 1a43 3eac
000002f0: 865c 69ac cb40 caa7 d6f7 9ca7 febc 5da8
00000300: 284d 3628 cf9e 0328 7570 9526 7a96 1827
00000310: db12 9027 11bb 46a8 7a96 18b0 4ac6 73b0
00000320: 7a96 98b0 f7e6 b4af fe4c 36b0 3748 81b0
00000330: 7aee 69ad 0ff4 a9af fb56 40b0 f410 e7ae
00000340: b765 93af 87e3 bdaf 7a96 98ae bffb 55af
00000350: fb72 a8af 696a 8fad d863 03af eace 9eaf
00000360: 4014 18b0 e07f 71b0 755f 99b0 bf8f 27b0
00000370: 6fc9 88b0 14c5 b2b0 c825 23b0 518d 8cb0
00000380: 3e08 c1b0 06d2 66af 0484 86af 4da0 80af
00000390: b007 6eaf 2d09 88af a08d 65af 1d85 4faf
000003a0: 87ec 55af dd11 2baf 98e0 8fab b940 c7ad
000003b0: 7a96 182d 192f b7ad 0345 37ae 58d7 482b
000003c0: 7a96 18ae 87fb 31ae 1b42 9d2c ffc0 c3b0
000003d0: 7a96 98b0 0c8f e5af 7a96 98b0 7a96 18b0
000003e0: b3c1 56ae 51c4 13b0 dd26 81af 45d8 51af
000003f0: 1af2 63ad c902 d7ac 8e29 e3ab 0453 65ad

em1_1.conv.bias f4 [32]
-0.004092192 -6.559261e-11 -0.0013727224 -1.2781575e-07 -1.5178575e-10 -0.0022273497 0.0015067969 -0.00027471484
-0.0061132307 -3.7348316e-10 -1.8223586e-11 -0.0017277905 -7.61691e-13 -1.8193769e-10 0.015252042 -4.829033e-07
0.0063683707 -2.2510374e-10 -9.307641e-11 -0.006571817 -5.145446e-12 -4.177404e-11 0.0006235481 -1.5075418e-11
0.011421595 -2.572364e-07 0.001865767 -1.3178636e-10 -1.3264339e-05 -2.4156668e-08 6.190933e-06 -1.5806433e-10
00000000: cb17 86bb 5b3d 90ae ecec b3ba ba3d 09b4
00000010: e4e3 26af baf8 11bb b77f c53a 9a07 90b9
00000020: 7f51 c8bb 1553 cdaf de4b a0ad 0777 e2ba
00000030: 9f65 56ab e80a 48af b3e3 793c dda0 01b5
00000040: c4ad d03b 1281 77af 5cad ccae 6658 d7bb
00000050: 0f0a b5ac 63b9 37ae 9b75 233a d39a 84ad
00000060: a421 3b3c 4d1a 8ab4 c08c f43a 90e6 10af
00000070: e789 5eb7 1381 cfb2 b6bb cf36 27cb 2daf

em1_1.conv1.weight f4 [32, 32, 3, 3]
-4.5877485e-05 -0.00064295233 -0.00065309566 -5.175126e-05 -0.00026319412 -1.7567147e-05 -0.00040236412 0.00053745555
0.0014022366 3.9633272e-11 2.4552109e-11 4.259941e-11 2.1281641e-11 3.8649617e-12 2.0346795e-11 4.4128663e-11
3.105381e-11 4.5767987e-11 0.0011693743 0.00068103796 0.00051541586 0.00053236505 0.00010450989 7.886305e-05
0.00033092313 2.1295951e-05 1.893829e-06 -5.456379e-08 -4.1555307e-08 -4.6598775e-08 -7.439826e-08 -5.1390412e-08
-6.351781e-08 -9.432521e-08 -7.105423e-08 -7.344362e-08 2.4435524e-15 -9.2172635e-15 2.2486038e-15 -7.1988356e-16
-1.0504666e-14 7.706246e-15 1.1882534e-14 -1.4524636e-14 -2.5968353e-14 0.00015527576 -8.396854e-06 0.00069554313
0.0001266136 -8.376857e-05 0.000611365 0.0011082008 0.00081620336 0.000102071965 0.010303844 0.0072614355
0.008603721 0.00056653196 0.006113871 -0.0014156427 -0.0013216259 0.008536944 0.003819937 0.00027018838
0.00015714137 0.00011802831 0.00012321252 2.4546312e-05 1.8501687e-05 7.6229146e-05 4.958995e-06 4.385797e-07
-0.0048738425 -0.0054227947 -0.002102277 -0.0037353595 -0.0028757285 -0.000853633 0.0031521197 0.0023395438
0.0054911654 -1.7953365e-14 -2.7327722e-14 1.3136568e-14 -7.359711e-15 -7.269603e-15 1.4652454e-14 -6.4701247e-15
-2.507024e-14 1.0711143e-14 -3.864758e-14 -4.5062366e-14 1.0030714e-14 -1.9677566e-14 -1.7483814e-14 -1.7178967e-14
-4.035728e-14 -2.9174098e-14 -3.9019247e-14 0.00020496959 0.00031575756 -0.00020205966 0.00029331798 -0.00024291172
0.00014906842 -6.7566114e-05 0.0008860642 0.0006230893 -1.7996805e-15 -8.532911e-15 -1.13389395e-14 -2.101727e-14
-6.8845237e-15 3.5554814e-15 -2.215013e-14 1.4579702e-14 7.820259e-16 1.2506895e-15 7.649113e-15 1.9460045e-14
1.262958e-14 -2.6765147e-14 1.4447912e-14 2.0554113e-14 1.8729259e-14 8.03401e-15 -0.025164912 -0.014702489
-0.0010755418 -0.006834503 -0.0066386038 0.011723559 0.007685694 0.016455231 0.024474546 2.6689816e-12
1.5833106e-11 1.5311974e-11 6.9751297e-12 9.285711e-12 1.0780624e-11 2.1593555e-11 1.8165398e-11 1.7347224e-11
-0.007258718 -0.008103184 -0.007675573 -0.0015010707 0.001450508 0.00034450245 4.8318743e-05 0.0004279996
0.0052135675 -4.235162e-15 9.469323e-15 5.5125815e-15 1.3446906e-15 1.6940649e-14 -1.5761506e-14 1.7396244e-14
-6.5343357e-15 1.2231389e-15 1.8753627e-15 -3.9257724e-15 -2.1056009e-15 -2.4986283e-14 -2.191632e-14 -2.1977523e-14
3.2381777e-15 1.0508022e-14 1.1374371e-14 -0.016406044 -0.0063742627 -0.0004843725 -0.004207734 -0.0046452745
0.0022144858 0.0022098382 0.0025283883 0.007668875 8.470324e-15 3.562778e-15 1.1780452e-14 8.470324e-15
9.8752454e-15 -5.907028e-15 3.1587295e-14 9.977091e-15 -9.822145e-16 -7.565715e-16 -8.596782e-15 3.324995e-14
1.8337462e-14 -2.8933082e-18 -3.6961658e-14 -1.5536978e-14 7.132163e-15 -3.1531348e-15 4.0310566e-05 -0.00010660093
-6.528492e-05 -0.000108175554 -0.00024500204 -0.00018885557 -0.000106517364 -0.0002477267 -0.0001330597 -8.646859e-15
-6.179247e-15 -3.0410658e-14 -1.837916e-15 -1.5544137e-15 1.7440424e-14 1.2846578e-14 3.635649e-15 -3.0888527e-14
0.009035697 -0.0050661312 -0.0066545294 -0.0025543373 -0.0046657408 -0.008101105 -0.0024495127 -0.008204912
-0.0095385 -1.7098841e-07 -1.4210846e-07 -1.4907096e-07 -2.4637524e-07 -1.5348664e-07 -1.5951875e-07 -2.8421692e-07
-2.2889515e-07 -2.2700968e-07 0.0008925575 0.001265964 0.0014214921 0.0020067743 0.0017460323 0.0014783399
0.0023126467 0.0014301384 0.00079909124 -1.7921382e-14 2.1349296e-14 -1.7683703e-14 -1.5734545e-14 2.2465284e-14
-1.7719279e-17 6.3507534e-16 -1.49389e-14 2.7441184e-14 1.9956426e-06 -3.0780006e-06 4.2821353e-06 2.8546538e-06
00000000: 936c 40b8 cd8b 28ba 8234 2bba 7e0f 59b8
00000010: 51fd 89b9 295d 93b7 66f4 d2b9 08e4 0c3a
00000020: 41cb b73a 194f 2e2e 6ff6 d72d ac5a 3b2e
00000030: ff31 bb2d 7bfc 872c e9f8 b22d 7514 422e
00000040: 7b93 082e 2c4a 492e b145 993a af87 323a
00000050: f91c 073a 6a8e 0b3a 522c db38 4763 a538
00000060: c07f ad39 b5a4 b237 782f fe35 8659 6ab3
00000070: 8b7a 32b3 e523 48b3 e0c4 9fb3 5bb8 5cb3
00000080: 4967 88b3 d58f cab3 7a96 98b3 0fb8 9db3
00000090: 9613 3027 200b 26a8 6b07 2227 087e 4fa6
000000a0: 393c 3da8 c9d2 0a28 840e 5628 88d3 82a8
000000b0: f2e6 e9a8 85d1 2239 37e0 0cb7 1c55 363a
000000c0: 94c3 0439 e9ac afb8 0344 203a 0c41 913a
000000d0: 7bf6 553a 780f d638 74d1 283c 56f1 ed3b
000000e0: 9ff6 0c3c 5183 143a de56 c83b 168d b9ba
000000f0: 683a adba 8ade 0b3c e857 7a3b 12a8 8d39
00000100: 51c6 2439 f785 f738 9c32 0139 cee8 cd37
00000110: 1234 9b37 36dd 9f38 7165 a636 ef75 eb34
00000120: c1b4 9fbb b3b1 b1bb 5bc6 09bb efcc 74bb
00000130: b876 3cbb 57c6 5fba cb93 4e3b 0853 193b
00000140: 3cef b33b a4b5 a1a8 7025 f6a8 baa5 6c28
00000150: ad94 04a8 20f5 02a8 42fa 8328 5e1c e9a7
00000160: 0ad0 e1a8 6ef4 4028 a00d 2ea9 5ff1 4aa9
00000170: 81b2 3428 613d b1a8 ee7a 9da8 00bc 9aa8
00000180: c7c0 35a9 7263 03a9 21ba 2fa9 1bed 5639
00000190: 438c a539 fadf 53b9 79c8 9939 1eb6 7eb9
000001a0: 404f 1c39 48b2 8db8 c346 683a d156 233a
000001b0: 3fae 01a7 1bb7 19a8 a143 4ca8 864e bda8
000001c0: 860a f8a7 8719 8027 b982 c7a8 8152 8328
000001d0: 5467 6126 4c3e b426 4fcb 0928 cf47 af28
000001e0: a883 6328 3a14 f1a8 9e22 8228 8f22 b928
000001f0: bbb2 a828 55ba 1028 a526 cebc b5e2 70bc
00000200: 32f9 8cba f7f3 dfbb a588 d9bb 2c14 403c
00000210: 46d8 fb3b 1fcd 863c d87e c83c 19d0 3b2c
00000220: fc44 8b2d 80af 862d 626a f52c 205b 232d
00000230: 9da7 3d2d 5df0 bd2d d7c8 9f2d 7a96 982d
00000240: 8ada edbb 38c3 04bc 6083 fbbb 93bf c4ba
00000250: f91e be3a 569e b439 dba9 4a38 2265 e039
00000260: 93d6 aa3b 7a96 98a7 8b95 2a28 979c c627
00000270: 54ca c126 7a96 9828 8ff7 8da8 02b1 9c28
00000280: 9c6c eba7 dc45 b026 5622 0727 dc70 8da7
00000290: 7bb9 17a7 720e e1a8 9867 c5a8 b8f4 c5a8
000002a0: d655 6927 b34b 3d28 07e7 4c28 f865 86bc
000002b0: 31df d0bb 60f3 fdb9 08e1 89bb 6337 98bb
000002c0: e820 113b efd2 103b 51b3 253b 304b fb3b
000002d0: 7a96 1828 d45c 8027 bf37 5428 7a96 1828
000002e0: 88e5 3128 b8d2 d4a7 ac41 0e29 36bb 3328
000002f0: 528d 8da6 2011 5aa6 a9dd 1aa8 95be 1529
00000300: 4f2b a528 0c7d 55a2 e475 26a9 d5f1 8ba8
00000310: 4c7b 0028 1235 63a7 2413 2938 f08e dfb8
00000320: 93e9 88b8 4fdc e2b8 9e73 80b9 8807 46b9
00000330: 1362 dfb8 51e1 81b9 f185 0bb9 99c4 1ba8
00000340: 7ea1 dea7 1af5 08a9 916f 04a7 be03 e0a6
00000350: e116 9d28 626c 6728 f1fc 8227 0c1c 0ba9
00000360: 760a 143c ca01 a6bb 3d0e dabb ab66 27bb
00000370: 12e3 98bb 7fba 04bc 0188 20bb e56d 06bc
00000380: 5e47 1cbc f098 37b4 7a96 18b4 5010 20b4
00000390: 8e45 84b4 16ce 24b4 2e48 2bb4 7a96 98b4
000003a0: 38c6 75b4 f2bf 73b4 85fa 693a b4ee a53a
000003b0: 5c51 ba3a 1684 033b 1fdb e43a dbc4 c13a
000003c0: c68f 173b 7b73 bb3a 1b7a 513a e56b a1a8
000003d0: 204c c028 d847 9fa8 64b9 8da8 6b59 ca28
000003e0: 776e a3a3 4a0c 3726 c28e 86a8 102b f728
000003f0: e1ec 0536 a68f 4eb6 43af 8f36 9492 3f36

em1_1.conv1.bias f4 [32]
-0.015453807 4.80663e-07 0.0022242826 -0.0006705152 0.0026340552 -0.0240126 0.00028574895 0.00043258103
-0.002242186 0.0018463888 -0.0010766295 -0.022585036 0.00085727667 0.0031916145 -0.0004987053 0.0030155377
0.00092450494 0.0037124238 0.002200175 0.0010053022 0.002623234 0.003376825 0.003856374 0.0031949372
-0.0019434826 -0.00039465725 0.0017247088 0.005949226 -0.024295103 -0.020244947 0.0018574799 0.0031755178
00000000: f731 7dbc e906 0135 45c5 113b 83c5 2fba
00000010: 1da0 2c3b 12b6 c4bc 93d0 9539 0bcc e239
00000020: a4f1 12bb 8702 f23a b11d 8dba 4104 b9bc
00000030: ddba 603a 682a 513b 8cbb 02ba 54a0 453b
00000040: 7a5a 723a 234c 733b d030 103b 58c4 833a
00000050: 90ea 2b3b b94d 5d3b 38bb 7c3b 2762 513b
00000060: 74bc feba 00ea ceb9 a00f e23a baf1 c23b
00000070: 8606 c7bc bbd8 a5bc af76 f33a 591c 503b

em1_1.conv2.weight f4 [32, 32, 3, 3]
0.00054676447 0.00034376397 4.610267e-05 0.00096702157 0.0008063917 0.0007739389 0.0002803223 0.001063346
0.0005898087 4.3290666e-12 -3.6624284e-13 2.9255804e-12 1.34897735e-11 -1.2579078e-12 1.2089567e-11 2.2934658e-11
2.332698e-11 2.6782371e-11 0.0028117092 0.0015692541 0.00055029645 0.0034789543 0.001983804 0.00075989706
0.003860246 0.0030084557 0.0018406629 5.2512656e-09 2.651374e-09 5.7722107e-09 8.7761076e-10 1.0453099e-08
8.881779e-09 5.3274363e-09 4.9547784e-09 9.457028e-09 -9.224072e-15 2.7060826e-14 -8.012581e-15 6.3834004e-15
4.5597893e-15 5.0123264e-15 1.018001e-14 3.3209464e-15 -1.9471351e-14 0.00019410638 0.00033926676 0.00043154095
0.0006092436 0.00046748878 0.00064111955 0.000613798 0.00046995978 0.00013000146 -0.003835497 -0.004680688
-0.0033676752 0.004628259 -0.004989119 0.0019706169 -0.0031419236 -0.0023710423 -0.007470614 0.0006345354
0.0003574747 0.0001254157 0.0007818358 0.000453621 0.0001765909 0.00086466904 0.00067827455 0.0004181683
-0.00063723995 0.0036588637 0.0076548895 -0.0043601757 0.0030069617 0.014119929 0.0013645913 0.0038074546
0.006637308 5.4216855e-15 -1.598019e-14 1.7555598e-14 -1.8628401e-14 8.7813346e-15 1.9125518e-14 -1.1929849e-14
-1.6940649e-14 5.281172e-15 -4.4707747e-14 -1.0182767e-14 7.556529e-15 -7.221116e-15 -5.622021e-15 -3.3881298e-14
-7.812595e-15 -4.235162e-15 -2.9825497e-14 0.00046853643 0.00091560953 -0.00013006362 0.00055836595 0.00026579565
3.450049e-05 0.00048692687 0.0009144847 0.0007214316 1.6080324e-14 1.2241361e-14 8.868847e-15 -1.2587469e-15
-1.6096543e-14 -1.6940649e-14 6.6371172e-15 4.235162e-15 7.122494e-15 2.3582755e-15 -4.0936298e-15 -1.9636484e-14
-2.3476273e-16 1.5911918e-15 -5.7512677e-15 -1.6838099e-14 -1.0180893e-14 -3.731576e-15 -0.012256992 0.0009510838
0.001469099 -0.03450949 -0.005371187 0.025616087 -0.009776753 0.004584782 0.0019103383 3.0586e-12
1.1956362e-11 6.241483e-12 6.1628194e-12 1.1498672e-11 4.659123e-12 4.336806e-12 8.510366e-12 4.357593e-12
-0.007039486 -0.0067943893 -0.0056229974 0.0010967981 0.0026885753 0.009768611 0.0016090254 0.0048974142
0.0022153433 1.6940649e-14 1.6241808e-14 -6.253284e-16 -1.1809351e-15 5.4861007e-15 7.1107815e-15 -4.051296e-14
1.1427793e-14 3.8051977e-15 -5.5133205e-15 -2.5140334e-15 1.2178142e-14 -3.4838235e-14 -1.01963395e-14 -6.8006327e-15
1.9899863e-14 -9.708567e-15 -2.0123475e-14 0.0012591532 0.0040450906 0.0063986126 -0.017698836 -0.010258163
0.008355162 -0.0027350269 -0.0010211447 0.0032557936 1.2036567e-14 8.897685e-15 1.6876093e-14 -1.8548536e-14
1.1810476e-14 1.8950058e-14 8.0827865e-15 -1.0489257e-14 -1.5210596e-14 -2.2349317e-14 1.24250535e-14 -9.676493e-15
-1.4682993e-14 4.568977e-15 -1.29551606e-14 4.580108e-15 6.394316e-16 2.2488911e-14 -4.5285797e-05 -5.025649e-05
-3.8955994e-05 -0.00022587739 -0.00029781117 -0.00022679688 -6.823604e-05 -6.326317e-05 -6.8277826e-05 1.4937698e-15
1.2347059e-14 -2.7112647e-14 1.4898154e-14 1.3026703e-14 4.5246285e-15 1.7037375e-15 1.0587905e-15 8.008216e-15
-0.0030902552 -0.019080777 -0.02940957 0.020268695 -0.004341253 -0.021710293 0.024139173 0.014911912
-0.0064103883 8.136411e-09 -1.7979247e-09 -2.341927e-09 -2.2204447e-09 1.5849707e-08 7.1745e-09 3.1059064e-09
1.9672561e-10 7.751845e-09 0.00025091218 0.0004715284 0.000592699 0.00058467843 -0.0011777421 0.0009320247
0.000891962 4.06135e-06 0.0005711866 2.6974071e-15 1.0378589e-15 1.2794739e-14 -6.174805e-15 1.681409e-14
-1.09994496e-14 -4.6183595e-15 1.5043917e-14 1.2924405e-14 6.167827e-07 -1.216551e-07 1.463333e-06 1.0113803e-06
00000000: be54 0f3a 383b b439 5d5e 4138 b87f 7d3a
00000010: 0864 533a 29e2 4a3a 39f8 9239 f95f 8b3a
00000020: 649d 1a3a c450 982c 282d ceaa 92de 4d2c
00000030: 8a50 6d2d e808 b1ab 92ae 542d 42bc c92d
00000040: b02f cd2d 8a94 eb2d a744 383b 6eaf cd3a
00000050: c541 103a 2bff 633b b502 023b d433 473a
00000060: 2efc 7c3b 8329 453b 6642 f13a 9f6e b431
00000070: 7733 3631 e754 c631 5e3c 7130 3795 3332
00000080: 7a96 1832 a00c b731 b13e aa31 7378 2232
00000090: 862a 26a8 04be f328 8257 10a8 7afc e527
000000a0: a248 a427 8d96 b427 0363 3728 a64c 6f27
000000b0: e161 afa8 0989 4b39 9ddf b139 7240 e239
000000c0: a5b5 1f3a 4819 f539 ce10 283a 49e7 203a
000000d0: ef64 f639 0051 0839 f65c 7bbb 7560 99bb
000000e0: 37b4 5cbb a7a8 973b c37b a3bb 7725 013b
000000f0: bbe8 4dbb 7d63 1bbb 0dcc f4bb f356 263a
00000100: 716b bb39 0582 0339 1df4 4c3a fbd3 ed39
00000110: 422b 3939 f5aa 623a 3cce 313a 993d db39
00000120: 730c 27ba 8cc9 6f3b ded5 fa3b cedf 8ebb
00000130: 7210 453b 4657 673c 16dc b23a 7d86 793b
00000140: c67d d93b 3956 c327 cfef 8fa8 7420 9e28
00000150: 2bca a7a8 c230 1e28 7144 ac28 b8e8 56a8
00000160: 7a96 98a8 3746 be27 8658 49a9 b96f 37a8
00000170: 5720 0828 8515 02a8 fe8d caa7 7a96 18a9
00000180: 3cbd 0ca8 7a96 98a7 7552 06a9 e5a5 f539
00000190: 8405 703a b061 08b9 4e5f 123a 7d5a 8b39
000001a0: 9eb4 1038 384a ff39 08ba 6f3a 751e 3d3a
000001b0: b4d6 9028 5085 5c28 56c4 1f28 9067 b5a6
000001c0: 1afc 90a8 7a96 98a8 9a20 ef27 7a96 9827
000001d0: b54e 0028 81ee 2927 127d 93a7 a6de b0a8
000001e0: dd54 87a5 9e50 e526 1536 cfa7 03aa 97a8
000001f0: 1567 37a8 b771 86a7 8dd1 48bc 2752 793a
00000200: c88e c03a d359 0dbd c800 b0bb d4d8 d13c
00000210: ad2e 20bc f03b 963b 5164 fa3a d73a 572c
00000220: ab56 522d 489a db2c bed5 d82c 6a49 4a2d
00000230: a6ed a32c 7a96 982c 48b7 152d b551 992c
00000240: 7dab e6bb 78a3 debb 1f41 b8bb 70c2 8f3a
00000250: cf32 303b 860c 203c efe5 d23a 7d7a a03b
00000260: 4b2f 113b 7a96 9828 0f4b 9228 183d 34a6
00000270: d130 aaa6 59a8 c527 b118 0028 4374 36a9
00000280: 65dd 4d28 c118 8927 68a3 c6a7 bb27 35a7
00000290: c461 5b28 c0e5 1ca9 51ae 37a8 c404 f5a7
000002a0: f63d b328 dde4 2ea8 9341 b5a8 2c0a a53a
000002b0: ae8c 843b 74ab d13b 26fd 90bc db11 28bc
000002c0: 17e4 083c 233e 33bb eed7 85ba 275f 553b
000002d0: ded4 5828 5449 2028 9f01 9828 0312 a7a8
000002e0: 35c2 5428 dcaf aa28 469b 1128 29f5 3ca8
000002f0: 3f01 89a8 044e c9a8 72d4 5f28 f350 2ea8
00000300: ad40 84a8 609d a427 2261 69a8 0a04 a527
00000310: b94d 3826 e68f ca28 41f1 3db8 7fca 52b8
00000320: ae64 23b8 80d9 6cb9 8a23 9cb9 53d0 6db9
00000330: f219 8fb8 28ac 84b8 6130 8fb8 6146 d726
00000340: c26c 5e28 8235 f4a8 ce30 8628 10ab 6a28
00000350: 5504 a327 d288 f526 7a96 9826 6143 1028
00000360: e185 4abb 4a4f 9cbc 57ec f0bc 890a a63c
00000370: 1241 8ebb c9d9 b1bc 84bf c53c 1851 743c
00000380: 3c0e d2bb 50c8 0b32 da1a f7b0 9eef 20b1
00000390: 7a96 18b1 e025 8832 9283 f631 af6f 5531
000003a0: 564d 582f fa2c 0532 dd8c 8339 7837 f739
000003b0: 5b5f 1b3a 1b45 193a 785e 9aba 1e53 743a
000003c0: 8ed2 693a bb46 8836 afbb 153a 615e 4227
000003d0: 3c92 9526 527d 6628 8678 dea7 a772 9728
000003e0: 0226 46a8 d964 a6a7 e980 8728 4cd3 6828
000003f0: fc90 2535 4da0 02b4 bd67 c435 c3be 8735

em1_1.conv2.bias f4 [32]
-0.013508488 1.4522574e-06 0.0017935323 -0.00058622163 0.0064528235 -0.02218791 -1.1905357e-10 0.0005632906
-0.0023647095 0.003566157 -0.00095767423 -0.010900064 0.0013271025 0.0043882052 0.0014851517 0.0022863746
-2.47285e-10 0.013011576 0.0051617315 -0.00027830564 0.0112738125 0.0053915493 0.0012675788 0.013509879
-0.0019480954 -0.00028341988 0.0047189924 0.0048928405 -0.023103874 -0.03846181 0.0063344445 0.010562631
00000000: b552 5dbc 2feb c235 f514 eb3a abac 19ba
00000010: 3572 d33b 6bc3 b5bc 9ae6 02af cba9 133a
00000020: 3ef9 1abb 30b6 693b 6e0c 7bba 2f96 32bc
00000030: 2cf2 ad3a efca 8f3b 6ca9 c23a 00d7 153b
00000040: 45f2 87af 812e 553c be23 a93b 8de9 91b9
00000050: ccb5 383c 98ab b03b e324 a63a 8a58 5d3c
00000060: 3c57 ffba f997 94b9 c7a1 9a3b 1f54 a03b
00000070: 5644 bdbc 228a 1dbd 2c91 cf3b e30e 2d3c

em1_1.conv3.weight f4 [32, 32, 3, 3]
0.0005117957 0.0004276858 0.00040507095 0.00056565535 0.0005822813 0.0003260881 0.00025553425 0.0005877733
0.0005151687 3.889008e-12 8.170912e-12 2.2414971e-12 6.043943e-12 1.3692431e-11 4.6662878e-12 1.0251982e-12
4.797499e-12 2.1319279e-12 -0.007307341 -0.0062120818 -0.0061697825 -0.008501559 -0.0058411066 -0.006675455
-0.008582659 -0.008678176 -0.007887909 -3.0551761e-09 3.61876e-08 6.140772e-08 -1.1102224e-09 3.8350638e-08
5.2722115e-08 -1.1671156e-08 3.4301927e-08 3.5527115e-08 -3.6353045e-14 -3.9516713e-15 1.980304e-14 8.470324e-15
2.9117893e-14 4.235162e-15 -8.470324e-15 -1.9902693e-14 -5.9618808e-15 0.00017501404 0.0005655867 0.000593208
-1.939077e-05 0.00037353236 0.00056269526 8.42211e-05 0.000634935 0.000404929 0.0009416487 -0.0009856402
0.0049054176 -0.0027029146 -0.0052014487 0.00083609286 0.00067955576 0.006287872 0.0046908827 -0.0016119027
-0.0013620525 -0.0013538988 -0.0018857971 -0.0012838142 -0.0014683238 -0.001914079 -0.0019357866 -0.0017484067
0.011485908 0.008986522 0.008089961 0.013573129 0.009615814 0.009345411 0.012021746 0.010937086
0.009173571 -2.8523021e-15 -8.725791e-15 -1.5062113e-14 1.2448054e-14 1.6940649e-14 2.7201084e-14 6.8026283e-15
2.4661362e-16 7.744702e-15 9.445325e-16 -2.0720972e-14 -2.9958834e-14 6.3750986e-15 1.6240508e-14 1.1994084e-14
-5.1580812e-15 -1.6879567e-15 -8.470324e-15 0.00033137712 0.0015622323 0.0005082201 0.00010102051 0.0009800862
0.00070524827 -0.00044344674 0.0005248382 0.00031236184 -2.3309351e-15 -2.6469764e-16 -9.337333e-15 -2.6469764e-16
7.7421596e-16 8.470324e-15 -1.2360628e-14 -4.3942795e-15 -8.74358e-15 8.110179e-15 8.599936e-15 9.104721e-15
2.160823e-14 -7.9459475e-15 1.2889215e-15 8.727132e-15 1.4271365e-14 3.3684545e-14 -0.012908112 -0.017487817
-0.007957582 -0.0103296125 -0.006404963 -0.015639445 -0.0070201205 -0.0049166074 -0.011943382 1.7228963e-11
2.0594292e-11 1.5664225e-11 1.8728264e-11 1.9356901e-11 1.1906472e-11 1.3711416e-11 2.2188244e-11 1.83052e-11
0.006240731 0.010187059 0.001429706 0.008989762 -0.008348742 0.00825518 0.0043659895 0.007399967
0.0054039066 9.458626e-15 2.9798873e-15 -6.1906004e-15 1.6209148e-14 5.8692374e-15 4.373648e-15 -4.235162e-15
-6.070184e-15 4.3223147e-15 1.4542653e-14 -2.1003542e-14 -3.1971296e-14 -3.9861902e-14 -1.054697e-14 6.149969e-15
6.834925e-15 -8.562483e-15 -1.8254856e-14 0.0030063025 -0.0048726723 0.0011772058 0.008200448 -0.0013836792
-0.0024619298 0.010733208 0.01107237 0.004997322 2.746734e-16 -4.235162e-15 4.3443553e-15 2.0923175e-15
1.0687631e-14 6.33808e-16 -1.636941e-14 -1.07954425e-14 3.8308454e-15 2.0161144e-14 -1.3047951e-14 1.7065488e-14
-2.117581e-15 -2.2228958e-14 -3.955141e-16 7.550104e-17 2.117581e-15 1.6792118e-14 -2.4260471e-05 -4.9253496e-05
7.5872954e-06 -0.0002893653 -0.0002681242 -9.1232825e-05 -9.735054e-06 -3.441357e-05 1.7886268e-05 4.235162e-15
2.4601238e-14 -7.2877995e-15 -3.3881298e-14 -4.1785136e-16 -1.6940649e-14 -2.8739248e-15 -9.925988e-15 -6.696916e-15
0.009837161 0.027630318 0.01747379 -0.002715904 -0.017349122 0.018764427 -0.014061999 -0.0122899795
0.0062334533 -3.528308e-08 3.5527115e-08 9.074383e-08 -1.0339681e-09 6.0936465e-08 1.037931e-07 -2.7405793e-08
5.497828e-08 7.105423e-08 0.0003929818 0.0017530143 0.0015224129 0.0011839065 -0.0023335144 0.0012853561
0.00044424998 0.0006192353 0.0010227481 6.261985e-15 -1.6778659e-14 7.747159e-15 -1.0765952e-14 -5.494775e-15
-3.110501e-15 8.574674e-15 -2.8756457e-14 -1.4455012e-14 1.8203897e-06 2.4579465e-06 -2.7627312e-08 2.2770982e-06
00000000: 072a 063a 043b e039 b45f d439 7d48 143a
00000010: 3da4 183a cef6 aa39 3af9 8539 cc14 1a3a
00000020: 630c 073a 12d5 882c 84be 0f2d 39bb 1d2c
00000030: 00a7 d42c 3ae1 702d 2f2e a42c a848 902b
00000040: 08cc a82c 6605 162c 6b72 efbb b88e cbbb
00000050: e32b cabb 1f4a 0bbc c166 bfbb c6bd dabb
00000060: 489e 0cbc e92e 0ebc 4a3c 01bc 3af3 51b1
00000070: b06c 1b33 40df 8333 7a96 98b0 f9b6 2433
00000080: 9470 6233 4982 48b2 5e53 1333 7a96 1833
00000090: 35b8 23a9 bc5f 8ea7 b45e b228 7a96 1828
000000a0: a522 0329 7a96 9827 7a96 18a8 7c44 b3a8
000000b0: a5cc d6a7 f983 3739 e243 143a 8481 1b3a
000000c0: 5da9 a2b7 aad6 c339 d781 133a dc9f b038
000000d0: c471 263a a64c d439 f9d8 763a 9930 81ba
000000e0: a0bd a03b 6223 31bb ea70 aabb 3e2d 5b3a
000000f0: 3724 323a 7e0a ce3b fab5 993b 7b46 d3ba
00000100: e686 b2ba 4e75 b1ba da2c f7ba a845 a8ba
00000110: c574 c0ba d5e1 faba 38ba fdba cb2a e5ba
00000120: 642f 3c3c 353c 133c c18b 043c d461 5e3c
00000130: a68b 1d3c 7f1d 193c dbf6 443c 7731 333c
00000140: bf4c 163c b087 4da7 9c30 1da8 deaa 87a8
00000150: 843e 6028 7a96 9828 6e01 f528 2c17 f527
00000160: bf29 8e25 2284 0b28 191f 8826 4fa3 baa8
00000170: 2fec 06a9 e8af e527 1048 9228 f310 5828
00000180: e7d6 b9a7 9c42 f3a6 7a96 18a8 afbc ad39
00000190: d1c3 cc3a 133a 053a f9da d338 3c76 803a
000001a0: 69e0 383a 6a7e e8b9 4c95 093a 7fc4 a339
000001b0: 2af6 27a7 7a96 98a5 d934 28a8 7a96 98a5
000001c0: 0e27 5f26 7a96 1828 56ab 5ea8 1352 9ea7
000001d0: a582 1da8 9919 1228 34ec 1a28 1d04 2428
000001e0: 30a1 c228 3724 0fa8 cfc0 b926 cb36 1d28
000001f0: 878b 8028 a3b3 1729 8c7c 53bc 9c42 8fbc
00000200: 8560 02bc 893d 29bc b9e0 d1bb 4b1e 80bc
00000210: 0a09 e6bb 7e1b a1bb 2dae 43bc 2d8c 972d
00000220: 3926 b52d b3c8 892d 4dbc a42d de43 aa2d
00000230: fc75 512d ba36 712d 7c2b c32d a503 a12d
00000240: 0c7f cc3b 9fe7 263c f964 bb3a cb49 133c
00000250: 29c9 08bc bc40 073c 9310 8f3b 6c7b f23b
00000260: 4113 b13b 3764 2a28 38b9 5627 360a dfa7
00000270: c0ff 9128 2976 d327 c893 9d27 7a96 98a7
00000280: 91b3 daa7 51ba 9b27 13fd 8228 df2e bda8
00000290: 65fc 0fa9 a585 33a9 50ff 3da8 7493 dd27
000002a0: 0e41 f627 7c3f 1aa8 d56c a4a8 6305 453b
000002b0: f0aa 9fbb 794c 9a3a 2c5b 063c 925c b5ba
000002c0: 5458 21bb 56da 2f3c e368 353c 93c0 a33b
000002d0: a456 9e25 7a96 98a7 9b85 9c27 72c4 1627
000002e0: 0088 4028 c7ae 3626 4a71 93a8 3179 42a8
000002f0: 5005 8a27 6f98 b528 0e0d 6ba8 56b6 9928
00000300: 7a96 18a7 7d38 c8a8 94ff e3a5 f317 ae24
00000310: 7a96 1827 fd3f 9728 f782 cbb7 8a95 4eb8
00000320: 5f96 fe36 f4b5 97b9 0593 8cb9 4054 bfb8
00000330: bd53 23b7 4a57 10b8 780a 9637 7a96 9827
00000340: 9896 dd28 0b49 03a8 7a96 18a9 fadf f0a5
00000350: 7a96 98a8 8e16 4fa7 8acf 32a8 2648 f1a7
00000360: 0b2c 213c fa58 e23c 3225 8f3c 4ffd 31bb
00000370: bf1f 8ebc dbb7 993c 4c64 66bc e95b 49bc
00000380: ff41 cc3b 288a 17b3 7a96 1833 f3de c233
00000390: 851b 8eb0 2ddc 8233 dce4 de33 fa69 ebb2
000003a0: 4221 6c33 7a96 9833 2009 ce39 66c5 e53a
000003b0: b38b c73a 4f2d 9b3a e0ed 18bb 6579 a83a
000003c0: 39ea e839 2d54 223a bb0d 863a 9e9c e127
000003d0: f420 97a8 778f 0b28 31f1 41a8 5bf8 c5a7
000003e0: 9e22 60a7 b477 1a28 f081 01a9 fd32 82a8
000003f0: 1d54 f435 33f3 2436 1a51 edb2 40d0 1836

em1_1.conv3.bias f4 [32]
0.0011213355 -7.664328e-07 -0.0008625911 -0.00013896666 -0.002435887 -0.016270127 -1.2535162e-12 -3.2977557e-12
0.001160794 -0.0010452305 -0.00051905244 -0.0126143675 0.0032437812 -0.00040152256 -0.0017268024 0.007831835
-9.476841e-13 -0.0038696006 0.008330995 -0.00040110148 0.0030220097 0.0030532938 0.002881783 0.00993406
-0.0017190584 -0.00034418708 0.009063274 0.003065049 -0.009848116 -0.038427673 0.010725622 0.01322095
00000000: c7f9 923a dcbc 4db5 821f 62ba 94b7 11b9
00000010: 67a3 1fbb ee48 85bc ae6a b0ab 160f 68ac
00000020: c925 983a 1e00 89ba 0511 08ba 7eac 4ebc
00000030: 9e95 543b 7283 d2b9 e055 e2ba 1951 003c
00000040: eb5f 85ab 2099 7dbb ba7e 083c ee4a d2b9
00000050: e90c 463b c519 483b 4cdc 3c3b 78c2 223c
00000060: 0752 e1ba 0274 b4b9 207e 143c fdde 483b
00000070: fe59 21bc 5666 1dbd 85ba 2f3c af9c 583c
