weights/TIN2.pth (torch_old, 987380 bytes, 59 tensors)

conv1_1.weight f4 [16, 3, 3, 3]
-1.9525838e-05 -2.8727294e-07 -9.369085e-06 -1.037988e-05 5.8756393e-07 -2.1104366e-05 -1.740481e-05 -1.8685294e-05
-1.2941326e-05 1.8701036e-05 -5.976897e-07 2.7091837e-06 1.650044e-05 -5.806407e-06 -1.8501729e-05 -1.5276222e-05
-1.3788239e-05 -2.0599638e-05 -1.81783e-05 -2.6111516e-06 -7.4022983e-06 4.2126903e-06 -1.3583325e-05 -1.805265e-05
7.5319576e-07 -1.4611196e-05 -8.761949e-06 -0.009322073 -0.0063560046 -0.00648465 -0.0114983255 -0.008071536
-0.009242116 -0.009904525 -0.011760304 -0.009066007 -0.04304418 -0.035680797 -0.040333524 -0.0454799
-0.03547375 -0.04033606 -0.044640154 -0.039208338 -0.038867395 0.065989256 0.08691999 0.06524584
0.07045576 0.09572209 0.074580975 0.06428227 0.08602973 0.07019144 -0.10378943 0.025922574
0.13246793 -0.14744964 0.041246433 0.21198422 -0.11139279 -0.03742113 0.06774288 -0.11395895
0.06486142 0.21430422 -0.17307301 0.06847818 0.28672305 -0.14612159 -0.02799623 0.12095452
-0.09704138 0.050638065 0.17463438 -0.1519842 0.055269707 0.24477777 -0.12037953 -0.032713667
0.08971265 -0.1605305 -0.08813989 -0.14143434 -0.08931859 0.122249216 -0.048632536 0.05073588
0.30290735 0.08738356 -0.18603127 -0.089883745 -0.16171145 -0.08124265 0.16272342 -0.03411147
0.100175455 0.38917622 0.14590819 -0.16050594 -0.07206094 -0.14146535 -0.07998665 0.15241455
-0.038616594 0.080999896 0.35665864 0.12089005 0.0032604903 0.0032263065 0.0024556748 0.003053974
0.002949412 0.0017188408 -0.0052944967 -0.0059754164 -0.0059041968 -0.00068771595 -0.0009764826 -0.0017215797
-0.0013198308 -0.0017417216 -0.0030115903 -0.010343871 -0.011282581 -0.011212549 0.0077589857 0.008046256
0.0068507325 0.007286748 0.0073726806 0.0055802236 -0.0013817665 -0.0018397255 -0.002336719 0.027245088
0.0037989141 -0.122956045 0.18985836 0.14525102 -0.11620265 0.0640766 0.034342475 -0.12556423
0.09466583 0.043141425 -0.1325173 0.2619436 0.18715896 -0.13139847 0.11704909 0.057799958
-0.15405656 0.064139955 0.0313223 -0.11215784 0.21901488 0.16545655 -0.11561698 0.08348447
0.044271402 -0.13215213 -0.03060472 -0.021013 -0.0017789396 -0.03661863 -0.023332005 -7.607326e-06
-0.025276711 -0.01586567 0.0014256248 -0.02851736 -0.014072722 0.008476532 -0.03201446 -0.013313591
0.013195104 -0.020396536 -0.006240501 0.013771453 -0.0006043668 0.015277672 0.03567364 -0.005248158
0.015159974 0.039635517 0.0032243566 0.018962119 0.037071425 -0.12858757 -0.12829787 -0.13087709
-0.13339704 -0.12883587 -0.13200438 -0.13905317 -0.1363753 -0.13358594 0.08424134 0.111834675
0.08868935 0.10137136 0.12990412 0.10409795 0.08252694 0.107457474 0.08321753 0.00041763688
0.041836146 0.0014190258 0.026736148 0.071715705 0.029541714 0.0017450448 0.044969875 0.005838247
0.0001276376 0.00013827629 0.00012649455 0.00013208175 0.00011548082 0.00011172752 9.855178e-05 0.000100230725
7.433612e-05 -0.00017926167 -0.00014672184 -0.0001600985 -0.00017263486 -0.00015742771 -0.00015204136 -0.00016514152
-0.00017955778 -0.00017927856 -7.034131e-05 -6.525157e-05 -8.3297535e-05 -7.128112e-05 -5.0000872e-05 -3.8276554e-05
-8.820048e-05 -8.098706e-05 -5.758591e-05 -0.025066184 -0.02822793 -0.028687624 -0.027742686 -0.031082554
-0.029949922 -0.039517082 -0.041708924 -0.036552493 -0.103236906 -0.10034033 -0.106851846 -0.09557327
00000000: 6bcb a3b7 7e3a 9ab4 ea2f 1db7 3f25 2eb7
00000010: 16b9 1d35 4809 b1b7 8b00 92b7 5dbe 9cb7
00000020: 921e 59b7 2be0 9c37 ec70 20b5 6ccf 3536
00000030: 6d6a 8a37 a8d4 c2b6 2934 9bb7 7025 80b7
00000040: 0954 67b7 63cd acb7 9a7d 98b7 3e3b 2fb6
00000050: 4261 f8b6 bc5a 8d36 f0e3 63b7 c56f 97b7
00000060: 382f 4a35 9c22 75b7 4900 13b7 9cbb 18bc
00000070: 0846 d0bb 307d d4bb 7963 3cbc 7a3e 04bc
00000080: 3e6c 17bc 9746 22bc 4aae 40bc 9789 14bc
00000090: 184f 30bd 0726 12bd c434 25bd 2249 3abd
000000a0: ec4c 11bd 6d37 25bd 98d8 36bd ec98 20bd
000000b0: 6b33 1fbd 6025 873d 1c03 b23d 9c9f 853d
000000c0: 1c4b 903d f109 c43d e9bd 983d 6ca6 833d
000000d0: 5b30 b03d 88c0 8f3d 8d8f d4bd 945b d43c
000000e0: aca5 073e 0afd 16be 05f2 283d 6412 593e
000000f0: e721 e4bd e646 19bd c7bc 8a3d 4f63 e9bd
00000100: 10d6 843d 9172 5b3e 0d3a 31be 4a3e 8c3d
00000110: 5dcd 923e e6a0 15be 5a58 e5bc 01b7 f73d
00000120: a2bd c6bd dc69 4f3d 5bd3 323e bfa1 1bbe
00000130: 7d62 623d 06a7 7a3e 8b89 f6bd c4fe 05bd
00000140: 44bb b73d 1b62 24be b082 b4bd 2ad4 10be
00000150: aaec b6bd cc5d fa3d e932 47bd 6dd0 4f3d
00000160: ac16 9b3e 27f6 b23d fb7e 3ebe f814 b8bd
00000170: b097 25be 8c62 a6bd f8a0 263e 78b8 0bbd
00000180: ca28 cd3d 1b42 c73e f568 153e ab5b 24be
00000190: b094 93bd 4bdc 10be 0ad0 a3bd 8f12 1c3e
000001a0: 6f2c 1ebd 46e3 a53d f69b b63e 3495 f73d
000001b0: f3ad 553b 7170 533b 63ef 203b 2e25 483b
000001c0: ec4a 413b ba4a e13a 757d adbb 6dcd c3bb
000001d0: fe77 c1bb d647 34ba a3fa 7fba a1a6 e1ba
000001e0: 2cfe acba 7b4a e4ba 1a5e 45bb 5779 29bc
000001f0: 93da 38bc d7b4 37bc 173f fe3b 72d4 033c
00000200: 1c7c e03b acc5 ee3b 8796 f13b 4fda b63b
00000210: 641c b5ba f222 f1ba a423 19bb 1731 df3c
00000220: 34f7 783b 61d0 fbbd 3b6a 423e afbc 143e
00000230: a8fb edbd 983a 833d b2aa 0c3d e993 00be
00000240: 29e0 c13d 10b5 303d 9db2 07be 791d 863e
00000250: 99a6 3f3e 528d 06be 6fb7 ef3d a6bf 6c3d
00000260: 01c1 1dbe cf5b 833d d04b 003d 02b3 e5bd
00000270: 7045 603e 716d 293e 98c8 ecbd e8f9 aa3d
00000280: ee55 353d e352 07be c0b6 fabc 7423 acbc
00000290: 4f2b e9ba 6bfd 15bd c322 bfbc 6f42 ffb6
000002a0: 1b11 cfbc b9f8 81bc 08dc ba3a 3d9d e9bc
000002b0: 4691 66bc 27e1 0a3c 9821 03bd 3f21 5abc
000002c0: 4730 583c a316 a7bc 1e7d ccbb a9a1 613c
000002d0: 5f6e 1eba 334f 7a3c 861e 123d bdf8 abbb
000002e0: 8a61 783c da58 223d ba4f 533b 7256 9b3c
000002f0: 35d8 173d 76ac 03be 8460 03be a504 06be
00000300: 3c99 08be 8ded 03be 282c 07be f463 0ebe
00000310: f7a5 0bbe c1ca 08be b986 ac3d 9409 e53d
00000320: c3a2 b53d ca9b cf3d 9605 053e 4e31 d53d
00000330: e203 a93d aa12 dc3d f46d aa3d 46f6 da39
00000340: 615c 2b3d 9bfe b93a c405 db3c afdf 923d
00000350: 7701 f23c fdb9 e43a 5532 383d c44e bf3b
00000360: 75d6 0539 42fe 1039 9fa3 0439 6d7f 0a39
00000370: 4b2e f238 414f ea38 96ad ce38 f632 d238
00000380: e7e4 9b38 30f8 3bb9 58d9 19b9 1de0 27b9
00000390: 5105 35b9 2e13 25b9 4b6d 1fb9 d729 2db9
000003a0: ad47 3cb9 b9fc 3bb9 3484 93b8 abd7 88b8
000003b0: 06b0 aeb8 c37c 95b8 07b8 51b8 238b 20b8
000003c0: 46f8 b8b8 99d7 a9b8 6688 71b8 9957 cdbc
000003d0: 433e e7bc 4f02 ebbc a144 e3bc d7a0 febc
000003e0: 8a59 f5bc aadc 21bd fad6 2abd 11b8 15bd
000003f0: df6d d3bd 3b7f cdbd 24d5 dabd ebbb c3bd

conv1_1.bias f4 [16]
-5.369461e-06 -0.00053255365 0.010998452 0.023907976 0.0001726595 0.025494413 -0.0028033901 0.01642191
9.646618e-06 0.0011817534 0.0006722908 0.012120099 -0.002102591 0.00076225866 0.0036057571 -1.3635405e-05
00000000: 522b b4b6 129b 0bba da32 343c a9da c33c
00000010: ee0b 3539 a9d9 d03c 15b9 37bb 3e87 863c
00000020: e9d7 2137 10e5 9a3a ac3c 303a 6193 463c
00000030: a0cb 09bb 50d2 473a 914e 6c3b 9ec3 64b7

conv1_2.weight f4 [16, 16, 3, 3]
6.875162e-06 -8.820032e-06 -5.0894937e-06 9.451761e-06 9.33492e-06 5.4857537e-06 -9.327089e-06 -8.288017e-06
8.67516e-06 0.03510429 0.04634891 0.033131033 0.04155932 0.05372784 0.040597104 0.032064285
0.04563848 0.033551157 0.00015259837 -0.0019901665 -0.0014846729 -0.006959569 -0.009955103 -0.008455157
0.0044723046 -0.0024771434 -0.009617546 0.010817681 0.008376062 -0.0012506103 0.001492963 0.015348806
0.009155767 -0.012275455 0.0015185053 -0.011726735 0.0018734215 0.0029028915 0.0024109916 0.0030179315
0.0033151717 0.0026866798 0.0034231914 0.0038825579 0.0032586106 -0.0009021261 -0.004016955 -0.00068192155
-0.007476777 -0.011238994 -0.01242769 -0.012159307 -0.006901586 -0.0023801313 0.0063752467 0.0048193918
0.00071614486 0.008239574 0.0071642967 0.0025999984 0.008358009 0.0068578725 0.0012052414 0.0014821545
0.00653673 -0.0022928994 0.0079417 0.015218101 0.0051080207 0.0054963683 0.0146141425 0.005385567
2.5121019e-05 2.0810898e-05 3.3898275e-05 3.002556e-05 3.0554802e-05 2.685717e-05 2.5875366e-05 2.4148294e-05
3.1150284e-05 0.08695052 0.11414474 0.083182365 0.10789348 0.13997401 0.10816777 0.08615857
0.1209565 0.09270753 -0.0038868468 -0.003847569 -0.0038643351 -0.0037758676 -0.0036878588 -0.0037086245
-0.0038816857 -0.0037058922 -0.0036785319 -0.031738974 -0.027563768 -0.030643398 -0.027337072 -0.022284143
-0.02521885 -0.02841862 -0.023404242 -0.025551751 0.004434996 0.0025576625 0.0053842994 0.008417656
0.006868706 0.00912303 0.006852174 0.0028954507 0.006722492 -0.0033580356 0.013130436 0.020143306
0.008222969 -0.0015169338 -0.0007907575 0.0024093227 -0.0042319084 -0.0071324646 0.03929537 0.056215957
0.04005253 0.055751722 0.07472032 0.059117205 0.040884174 0.06161205 0.04826624 -2.3398943e-06
4.3842515e-06 -7.3949905e-06 6.5853233e-06 8.71911e-06 -5.1164434e-06 4.3568866e-07 -7.662057e-06 -2.2294952e-07
9.253277e-06 -6.3769107e-06 -4.2603374e-06 -7.4018094e-06 -7.405921e-07 3.3352037e-06 6.049721e-06 -2.1573956e-06
-3.6453446e-06 -0.029234627 -0.016721584 -0.029300138 -0.022051716 -0.009317119 -0.021866856 -0.03117778
-0.01844851 -0.030810205 -0.0018046355 -0.014552184 -0.010544769 -0.0028326344 -0.018097943 0.0066804965
0.012908263 -0.012997783 0.015073818 0.0020525297 0.0017599284 -0.0045999107 -0.020219129 -0.018034387
-0.028708871 0.010852035 0.00096828036 0.0022908407 -0.0015272542 -0.0006533972 -0.0014330845 0.00051601895
0.0014208445 0.0007502113 0.0055732885 0.006299492 0.0056887767 0.011118917 -0.009623347 0.02573365
-0.0014905147 -0.026533846 -0.00030714495 0.015187243 0.0012910442 0.015253754 -0.0063844435 -0.011719867
-0.018107027 -0.0045651533 -0.009682675 -0.014718854 -0.006183851 -0.011498065 -0.015994754 0.07471478
0.10396944 0.07372422 0.10485975 0.13048871 0.09707872 0.08419287 0.10709566 0.06924367
9.037345e-05 9.429523e-05 9.311581e-05 9.067381e-05 9.679692e-05 8.510852e-05 7.712576e-05 8.967122e-05
7.9226986e-05 0.04535549 0.08035594 0.041311264 0.07145432 0.10817396 0.067802355 0.048320904
0.08513373 0.045315944 -0.009003407 -0.008709099 -0.008975987 -0.00856135 -0.008240351 -0.008541618
-0.008869601 -0.00860089 -0.008891153 0.10016473 0.11871031 0.10029217 0.115861535 0.13351087
0.11221509 0.10477699 0.120531715 0.09784595 -0.022755802 -0.028239923 -0.004229826 -0.017239163
00000000: 31b1 e636 c0f9 13b7 6bc6 aab6 0193 1e37
00000010: 2d9d 1c37 4412 b836 8b7b 1cb7 c30c 0bb7
00000020: 878b 1137 84c9 0f3d 5bd8 3d3d 68b4 073d
00000030: 1b3a 2a3d b911 5c3d 2649 263d d755 033d
00000040: 6aef 3a3d f06c 093d d002 2039 746d 02bb
00000050: 5b99 c2ba 190d e4bb ba1a 23bc 8087 0abc
00000060: 698c 923b 9257 22bb e992 1dbc a53c 313c
00000070: c03b 093c 85eb a3ba 87af c33a 8f79 7b3c
00000080: 1202 163c fd1e 49bc 9508 c73a 7e21 40bc
00000090: 988d f53a 703e 3e3b ba01 1e3b 7dc8 453b
000000a0: 5a43 593b 0213 303b 9f57 603b 8372 7e3b
000000b0: 6a8e 553b a87c 6cba a9a0 83bb fbc2 32ba
000000c0: c0ff f4bb c223 38bc 839d 4bbc d437 47bc
000000d0: b326 e2bb fafb 1bbb 72e7 d03b fdeb 9d3b
000000e0: abbb 3b3a 47ff 063c 7ac2 ea3b bc64 2a3b
000000f0: 08f0 083c 01b8 e03b 31f9 9d3a da44 c23a
00000100: 1132 d63b 7844 16bb e71d 023c 5855 793c
00000110: 2f61 a73b e11a b43b 2870 6f3c 6979 b03b
00000120: faba d237 1093 ae37 ff2d 0e38 66df fb37
00000130: f827 0038 554b e137 ed0e d937 1192 ca37
00000140: 5da7 0238 1d13 b23d b8c4 e93d 845b aa3d
00000150: 42f7 dc3d 5955 0f3e 1087 dd3d e873 b03d
00000160: 0bb8 f73d 72dd bd3d 78ba 7ebb 7f27 7cbb
00000170: c940 7dbb 8c74 77bb 01b0 71bb 650c 73bb
00000180: e163 7ebb 8ede 72bb 8613 71bb ba00 02bd
00000190: 69cd e1bc dd07 fbbc fff1 dfbc 3c8d b6bc
000001a0: c397 cebc 2ace e8bc 41ba bfbc e851 d1bc
000001b0: 7153 913b 759e 273b c76e b03b 35ea 093c
000001c0: e212 e13b c378 153c 3488 e03b 9ac1 3d3b
000001d0: 5a48 dc3b 7d12 5cbb 0a21 573c 9303 a53c
000001e0: a2b9 063c dad3 c6ba d64a 4fba bae5 1d3b
000001f0: d2ab 8abb 73b7 e9bb 2ff4 203d b442 663d
00000200: 1f0e 243d eb5b 643d f806 993d e224 723d
00000210: 2a76 273d eb5c 7c3d d2b2 453d 1407 1db6
00000220: 6f1c 9336 7c22 f8b6 7ff7 dc36 4b48 1237
00000230: eaad abb6 98e8 e934 498c 00b7 e663 6fb4
00000240: 863e 1b37 3ff9 d5b6 05f4 8eb6 0f5d f8b6
00000250: 1acd 46b5 5dd2 5f36 b5fe ca36 c6c7 10b6
00000260: 8ba2 74b6 757d efbc b4fb 88bc d806 f0bc
00000270: cda5 b4bc d4a6 18bc 1f22 b3bc 8b68 ffbc
00000280: 5421 97bc af65 fcbc 8589 ecba 496c 6ebc
00000290: f7c3 2cbc b8a3 39bb 2342 94bc 11e8 da3b
000002a0: 2e7d 533c a7f4 54bc 2df8 763c bc83 063b
000002b0: 66ad e63a d9ba 96bb 96a2 a5bc dabc 93bc
000002c0: de2e ebbc bccc 313c 32d4 7d3a ee21 163b
000002d0: 262e c8ba be48 2bba 56d6 bbba 7245 073a
000002e0: a13b ba3a d4a9 443a 22a0 b63b f86b ce3b
000002f0: eb68 ba3b 1e2c 363c 3eab 1dbc 60cf d23c
00000300: 605d c3ba 825d d9bc 4c08 a1b9 ead3 783c
00000310: 4138 a93a e2ea 793c 9834 d1bb af04 40bc
00000320: 3055 94bc 4897 95bb 15a4 1ebc 5927 71bc
00000330: e7a1 cabb 6162 3cbc 6e07 83bc 1004 993d
00000340: eeed d43d b9fc 963d b5c0 d63d d59e 053e
00000350: 35d1 c63d 506d ac3d f854 db3d a0cf 8d3d
00000360: e086 bd38 5ec0 c538 2b47 c338 2228 be38
00000370: 73ff ca38 4a7c b238 94be a138 df0d bc38
00000380: aa26 a638 aec6 393d a891 a43d 0036 293d
00000390: a456 923d 4f8a dd3d f6db 8a3d 24ec 453d
000003a0: 985a ae3d 369d 393d 0783 13bc 9cb0 0ebc
000003b0: 0510 13bc e844 0cbc 8a02 07bc 24f2 0bbc
000003c0: ce51 11bc bfea 0cbc 33ac 11bc 2a23 cd3d
000003d0: 641e f33d fb65 cd3d d048 ed3d 13b7 083e
000003e0: 06d1 e53d 5295 d63d 55d9 f63d 7563 c83d
000003f0: 606a babc 6957 e7bc 5a9a 8abb 2539 8dbc

conv1_2.bias f4 [16]
0.0057621337 0.039166424 0.0006854783 -0.02523126 -0.026791165 0.0122224325 0.008077142 0.031648424
-0.0059744515 -0.007929191 -0.029267801 0.0037716029 -0.009232178 -0.019265635 0.0076684235 -0.0147585105
00000000: 48d0 bc3b f96c 203d acb1 333a cab1 cebc
00000010: 2579 dbbc 9940 483c fd55 043c c7a1 013d
00000020: 55c5 c3bb 70e9 01bc 07c3 efbc ff2c 773b
00000030: 9042 17bc f7d2 9dbc 6647 fb3b aecd 71bc

em1_1.conv.weight f4 [32, 16, 3, 3]
-6.282114e-07 -1.3021646e-06 1.6289308e-06 -5.725371e-07 7.1418197e-07 -5.244895e-07 3.9161583e-07 -1.3225603e-06
1.1488441e-06 4.95879e-05 -0.0016796767 -0.00047999874 0.0017673775 -0.0011140615 -0.0012573886 0.0036080382
0.0009808572 -0.00064796425 -0.0015572584 0.006738032 0.009708957 -0.004232145 -0.010600061 0.006324208
0.0022495168 -0.0032414056 -0.006392073 0.00012222884 -0.008384297 0.0031203283 -0.0037992722 0.004587063
0.009186098 -0.009238452 -0.010657829 -0.004444996 -9.330555e-05 0.00014204408 -7.6963246e-05 -0.00011477576
-0.00017109947 -7.219209e-05 0.0001476976 2.896401e-06 2.2936516e-05 -0.0040481198 0.0034675945 0.0024932297
-0.0037195326 0.005020157 0.0024725934 -0.005565612 -0.0062932353 0.0009467298 -0.0023576955 -0.00059178134
0.000651058 -0.0020487942 -0.0023290294 -0.0005268363 -0.0007464537 -0.0021519957 -0.0022359753 0.00051674776
0.0008542762 0.003950315 -0.005500179 -0.0052232365 -0.0037246982 -0.0085594375 -0.008588441 -0.0077740233
1.5090743e-06 3.454235e-06 6.6543266e-06 -4.659285e-06 -1.611877e-06 -3.4235413e-07 -7.2575426e-06 -2.6635628e-06
-1.1649486e-06 0.001430575 -0.0018902099 -0.00129169 0.0049783974 0.0013330814 0.0006858245 0.008268803
0.0040762383 0.0022903709 -0.0007051121 -0.0005388316 -0.0003616291 -0.0009947303 -0.00077733374 -0.00048600737
-0.0010722897 -0.0009094887 -0.00057504687 0.0004431927 0.00091514236 0.0037036843 -0.0013890754 -0.00022512887
0.001962394 -0.002335046 -0.0007059632 0.0016094712 -0.0018776373 0.0029951935 0.0022504018 -0.0030590168
-0.0010337095 -0.0023537553 -0.0006538054 -0.0064633405 -0.004179163 -0.0046824045 0.01008403 0.01003508
0.0009452173 -0.007301568 -0.0052244635 -0.002713092 -0.0040340046 -0.0038870657 -0.0048333327 0.0001821228
0.00210088 -0.0045648706 0.0009923219 0.004844002 -0.0047193514 0.0010638675 0.006163651 -5.3212324e-07
1.3765834e-06 -3.2959667e-07 2.9857537e-07 -2.4267174e-06 7.96535e-07 -4.4560412e-07 -1.346646e-08 -1.3926716e-06
9.3853976e-07 1.28342e-06 3.5923787e-07 1.5807327e-06 -1.4448066e-06 -5.872304e-07 -8.889227e-07 4.504521e-07
-5.359209e-07 -0.011222335 -0.010373859 -0.008045049 -0.0024765187 -0.0010303826 0.00068062916 0.0063915863
0.0084367115 0.0094684465 -0.006978179 -0.011212569 -0.0049341707 -0.00603217 -0.010000623 0.0017961084
-0.0039412347 -0.0059445854 0.006595229 0.018513037 0.021147287 0.019142404 0.024093332 0.032679807
0.022218494 0.024352398 0.03844184 0.029263435 -0.0003957042 -0.00040717053 -0.0003880435 -0.00012561817
-0.0002001506 -9.512589e-05 0.00047126593 0.00040436635 0.0004352627 -0.010914283 -0.010666476 -0.007642617
-0.0020650874 -0.0017183265 -0.0022710892 0.003155427 0.0028888162 -0.00045839522 0.00039047276 0.0007878951
0.0019410221 0.00038872825 8.79248e-05 0.0012526519 5.7793364e-05 -0.00027955603 0.00058605755 0.008044266
0.007396279 0.0068549775 0.0032458454 0.0029392429 0.0018413235 -0.0012538808 -0.0017151006 -0.0030458053
8.236928e-06 5.6149315e-06 6.8582353e-06 6.8584654e-06 2.3306432e-06 9.286969e-07 4.1812136e-06 5.149029e-07
1.918787e-06 -0.015126303 -0.013736776 -0.009994356 -0.0018104196 4.2125703e-05 0.002629193 0.013049799
0.015540363 0.016922306 -0.000632844 -0.00054627087 -0.0005369861 -0.00056301814 -0.00046093 -0.00045326087
-0.00046658266 -0.00038626118 -0.0003812287 -0.0041872286 -0.005918569 -0.006691345 -0.0040557096 -0.0053352816
-0.0068977876 -0.0022012487 -0.0033106206 -0.0053937845 0.0012552346 0.0007106858 0.0052287467 0.0027580753
00000000: 5ca2 28b5 09c6 aeb5 a3a1 da35 73b0 19b5
00000010: 36b6 3f35 a5ca 0cb5 453f d234 d382 b1b5
00000020: fc31 9a35 9afc 4f38 9928 dcba 57a8 fbb9
00000030: 59a7 e73a b305 92ba f6ce a4ba d674 6c3b
00000040: 1b90 803a 25dc 29ba ec1c ccba b6ca dc3b
00000050: 5112 1f3c cead 8abb e1ab 2dbc 4d3b cf3b
00000060: a16c 133b c36d 54bb 9874 d1bb 8e2a 0039
00000070: 4a5e 09bc 6c7e 4c3b 36fd 78bb 134f 963b
00000080: 4a81 163c e05c 17bc 2d9e 2ebc 54a7 91bb
00000090: 09ad c3b8 abf1 1439 5467 a1b8 c4b3 f0b8
000000a0: 2a69 33b9 d565 97b8 46df 1a39 ca5f 4236
000000b0: cb67 c037 17a6 84bb 9540 633b 7465 233b
000000c0: 67c3 73bb 2180 a43b 3c0b 223b bd5f b6bb
000000d0: 7c37 cebb f62d 783a 9183 1abb c621 1bba
000000e0: c3ab 2a3a 1045 06bb a1a2 18bb 631b 0aba
000000f0: a9ad 43ba 7f08 0dbb 7189 12bb 5b76 073a
00000100: 81f1 5f3a a571 813b d83a b4bb af27 abbb
00000110: 111a 74bb e23c 0cbc 88b6 0cbc 3cbd febb
00000120: 668b ca35 4ecf 6736 3b48 df36 f456 9cb6
00000130: ac57 d8b5 cbcc b7b4 d185 f3b6 a9bf 32b6
00000140: 545b 9cb5 2282 bb3a ebc0 f7ba ed4d a9ba
00000150: d321 a33b caba ae3a e7c8 333a e079 073c
00000160: f791 853b 0c1a 163b 46d7 38ba 6040 0dba
00000170: 0999 bdb9 9c61 82ba fcc5 4bba cece feb9
00000180: 128c 8cba c16a 6eba bebe 16ba 515c e839
00000190: 2ae6 6f3a 83b9 723b a311 b6ba 9210 6cb9
000001a0: 829b 003b 9207 19bb 6310 39ba e4f4 d23a
000001b0: 0e1b f6ba 024b 443b 7a7b 133b c979 48bb
000001c0: 897d 87ba 7641 1abb 2364 2bba 6eca d3bb
000001d0: 5cf1 88bb db6e 99bb 7d37 253c 2d6a 243c
000001e0: 76c8 773a fe41 efbb fa31 abbb 21ce 31bb
000001f0: af2f 84bb 24be 7ebb ef60 9ebb 38f8 3e39
00000200: ebae 093b e994 95bb cc10 823a 6fba 9e3b
00000210: caa4 9abb 7871 8b3a 74f8 c93b 3bd7 0eb5
00000220: 0cc3 b835 6cf3 b0b4 e34b a034 b0da 22b6
00000230: 78d1 5535 5d3b efb4 1e5a 67b2 d5eb bab5
00000240: f6ef 7b35 fa41 ac35 47dd c034 9029 d435
00000250: 2deb c1b5 2aa2 1db5 4e9e 6eb5 aad5 f134
00000260: 34dc 0fb5 e2dd 37bc 1ef7 29bc 62cf 03bc
00000270: 174d 22bb e70d 87ba 406c 323a 8370 d13b
00000280: 223a 0a3c 8b21 1b3c 35a9 e4bb ecb4 37bc
00000290: d3ae a1bb 82a9 c5bb a7d9 23bc 666b eb3a
000002a0: 7925 81bb ccca c2bb ca1c d83b a7a8 973c
000002b0: 133d ad3c 88d0 9c3c 615f c53c 43db 053d
000002c0: 8f03 b63c ae7e c73c 3175 1d3d dfb9 ef3c
000002d0: 8576 cfb9 8179 d5b9 5172 cbb9 5fb8 03b9
000002e0: 85df 51b9 537e c7b8 3e14 f739 2201 d439
000002f0: f833 e439 d2d1 32bc 71c2 2ebc eb6e fabb
00000300: 6b56 07bb 7839 e1ba 8ed6 14bb 48cb 4e3b
00000310: 4b52 3d3b c454 f0b9 5eb8 cc39 bf8a 4e3a
00000320: e569 fe3a 39ce cb39 4464 b838 0630 a43a
00000330: 2767 7238 6091 92b9 a8a1 193a 19cc 033c
00000340: 7c5c f23b b89f e03b 40b8 543b 50a0 403b
00000350: 9058 f13a 4259 a4ba 3acd e0ba 229c 47bb
00000360: 5631 0a37 e567 bc36 cb1f e636 c521 e636
00000370: 2568 1c36 914b 7935 5a4c 8c36 dc37 0a35
00000380: 82c4 0036 50d4 77bc 3710 61bc 5ebf 23bc
00000390: 9a4b edba 21b0 3038 8a4e 2c3b d3ce 553c
000003a0: 029d 7e3c a6a0 8a3c 71e5 25ba 9e33 0fba
000003b0: 87c4 0cba 8297 13ba faa8 f1b9 a5a3 edb9
000003c0: aa9f f4b9 1983 cab9 a6df c7b9 0535 89bb
000003d0: 8ef0 c1bb 1243 dbbb c2e5 84bb 96d3 aebb
000003e0: d606 e2bb d342 10bb fff6 58bb 58be b0bb
000003f0: af86 a43a 514d 3a3a e855 ab3b d3c0 343b

em1_1.conv.bias f4 [32]
-0.0033106222 0.0044772313 0.00013257949 1.7105374e-05 0.0006614479 0.007425792 0.00011283335 -1.2274505e-07
0.0021853037 -0.0035757676 -0.00012921917 0.0062464364 4.9042566e-05 0.0009083558 0.002660503 -6.922967e-06
-8.7534424e-08 -0.015640426 3.422235e-08 0.012723499 -0.0015566092 1.9623525e-05 0.016863668 -0.00421985
4.6894026e-08 -0.00020395931 -0.0024513672 0.0013571129 0.004334762 0.005240275 9.392081e-06 -0.0026977323
00000000: 06f7 58bb bdb5 923b 0905 0b39 837d 8f37
00000010: 0465 2d3a 0f54 f33b f2a0 ec38 e7cb 03b4
00000020: 5037 0f3b 6d57 6abb 027f 07b9 e8ae cc3b
00000030: 0eb3 4d38 ba1e 6e3a d55b 2e3b d54b e8b6
00000040: 8ffa bbb3 5a20 80bc dffb 1233 3976 503c
00000050: 2307 ccba 339d a437 ad25 8a3c ab46 8abb
00000060: 8768 4933 e9dd 55b9 1ea7 20bb 27e1 b13a
00000070: 9f0a 8e3b 9db6 ab3b ae92 1d37 70cc 30bb

em1_1.conv1.weight f4 [32, 32, 3, 3]
0.00033433773 -0.00012805726 -2.0553494e-05 -0.0002299606 -0.000311297 -0.00033642154 -0.00028805243 -0.00023135242
-0.0005383125 -0.0020296029 -0.0047792145 -0.0016277988 -0.004280213 -0.0011067587 -0.0038617651 -0.002441025
-0.0021808404 -0.00038150375 -4.0161118e-05 0.00035806408 -0.00030193024 -1.1477543e-06 0.00042925324 0.00028653652
-0.0003549693 0.00019313864 -0.00032016635 6.3748084e-05 3.825821e-05 1.2703288e-07 -5.300047e-05 -0.00012575906
-8.4474705e-05 2.256816e-06 -7.034396e-06 -8.189477e-06 0.0031889093 0.0022965767 -0.0011330463 0.0037141587
0.0029302242 -0.0014433172 -5.665275e-05 -0.0012562772 -0.004614023 0.008754029 0.012470503 0.0019913788
0.006950952 0.002857698 0.002771773 -0.0003173286 -0.0006600114 -0.008075598 4.0225055e-05 2.4845958e-05
4.2627753e-06 2.118804e-05 -2.9431342e-06 -1.3076573e-05 4.237829e-06 -8.509455e-06 -2.2953052e-05 1.3847535e-06
-1.0918653e-06 -3.315698e-07 -3.6934114e-07 7.5253433e-07 -7.804709e-07 6.578098e-07 -8.343923e-07 -3.3811574e-07
-4.53818e-07 -0.00012862397 1.3065166e-05 -0.00013753318 -0.00062856893 -0.00010268984 3.7110274e-06 -0.0001339574
-2.7963577e-05 0.0003493951 0.0017977719 0.00032300816 0.00062401325 0.0011573602 0.0006950995 0.0008287975
0.0005121619 0.00087217125 2.4242961e-05 -2.7954984e-05 -8.641627e-06 1.6380287e-05 9.775149e-06 3.0554013e-06
-9.090244e-05 -5.739275e-06 2.7722654e-06 0.00060816307 0.00076247245 0.00023162844 0.0007159722 0.0011865711
0.0009314524 -0.00023191377 -9.291901e-08 -0.00027558368 3.637733e-05 1.8392337e-05 9.4369125e-06 2.9890929e-05
2.3656792e-05 1.02064705e-05 1.7591435e-06 8.902546e-06 2.0917225e-06 0.0002570426 -0.00016138662 -0.0010189704
0.0014149918 -0.00016303052 -0.00094558776 -0.0007811144 -0.0015835576 -0.0019996457 0.0038336464 0.00344103
-0.008464164 0.019273598 0.005484943 -0.009008608 0.0038429096 -0.009150752 -0.013257883 -2.050447e-06
-3.5157282e-06 -1.1026159e-06 -3.4345808e-06 -1.4742395e-06 -1.9773204e-06 -4.393933e-06 -2.382831e-06 7.871053e-08
-5.7502814e-07 7.8969623e-07 -2.3317801e-07 -7.6113724e-07 2.8609068e-07 9.695909e-07 1.0518821e-06 1.392338e-06
-6.4567166e-07 -0.0011762672 0.0035191318 0.0028514995 -0.0005297483 0.010385782 0.0027468263 0.0014103167
0.003991177 0.0050178412 -1.4252413e-07 3.140129e-07 5.985917e-07 1.0539317e-06 -1.4849862e-06 -3.129158e-08
1.0483072e-06 4.5741007e-07 -1.2456929e-06 0.009207804 0.003453455 -0.0093547115 0.00047679472 -0.00216215
-0.0047219475 -0.0093700085 -0.005941991 -0.017787006 0.00025139833 0.008423947 0.0024012493 0.0051303925
0.0045449724 0.0022917525 -0.0015748928 -0.0023150614 -0.0010990776 -1.8189296e-05 -1.8734532e-05 -3.887219e-05
-2.384479e-05 -1.195948e-05 -2.1884474e-05 -5.1316478e-05 -2.2291004e-05 -2.214948e-05 0.01264742 0.016429074
0.0053526415 0.008293668 -0.00211076 -0.008209206 -0.0044928794 -0.015965547 -0.0268433 -0.00014529903
0.00015867266 -0.00014396156 -0.00028570014 0.0002868386 -6.459021e-05 -8.9823065e-05 0.00022515563 3.7552836e-05
9.097514e-07 -9.590947e-07 -5.421868e-07 -1.1715393e-06 8.0220497e-07 1.5003033e-07 -9.251477e-07 1.3172822e-06
-1.3616016e-06 -1.2332931e-05 3.7935726e-05 2.0227259e-05 -1.1216535e-05 3.776634e-05 2.1161022e-05 1.3996447e-05
3.526628e-05 1.33505055e-05 -0.003629876 -0.004021995 -0.0039489153 -0.001875135 -0.0040655215 -0.0039415094
-0.0012472831 -0.0030471317 -0.0024426873 0.00025646266 0.0039137737 -0.0008718539 0.0006366123 -0.0054589165
0.0011526255 -0.0016291301 0.0018320472 -0.00046028744 6.2769934e-05 -0.001615075 0.0026345598 0.0026262496
00000000: 0d4a af39 1c47 06b9 4b6a acb7 9421 71b9
00000010: 9335 a3b9 bc61 b0b9 be05 97b9 3197 72b9
00000020: 8a1d 0dba 1603 05bb f59a 9cbb dd5b d5ba
00000030: 0741 8cbb a910 91ba ab15 7dbb 9bf9 1fbb
00000040: 6eec 0ebb 9104 c8b9 ac72 28b8 8cba bb39
00000050: 644c 9eb9 8a0c 9ab5 650d e139 483a 9639
00000060: 2c1b bab9 4285 4a39 00dc a7b9 7eb0 8538
00000070: 7177 2038 8866 0834 d24c 5eb8 31de 03b9
00000080: 0328 b1b8 ce73 1736 0009 ecb6 8965 09b7
00000090: 05fd 503b 2a82 163b ba82 94ba 3e69 733b
000000a0: 0109 403b b02d bdba 6d9e 6db8 aba9 a4ba
000000b0: 3b31 97bb 0f6d 0f3c 1551 4c3c cb81 023b
000000c0: d0c4 e33b 3748 3b3b a2a6 353b 205f a6b9
000000d0: 9e04 2dba 834f 04bc 53b7 2838 4a6c d037
000000e0: f608 8f36 f8bc b137 a982 45b6 7463 5bb7
000000f0: ad32 8e36 d5c3 0eb7 4e8b c0b7 c5db b935
00000100: 358c 92b5 9b02 b2b4 dc49 c6b4 c401 4a35
00000110: 8d81 51b5 5894 3035 01fb 5fb5 4686 b5b4
00000120: 45a4 f3b4 3cdf 06b9 7632 5b37 c836 10b9
00000130: 8cc6 24ba 305b d7b8 f70a 7936 ea76 0cb9
00000140: 5393 eab7 042f b739 37a3 eb3a 6c59 a939
00000150: d294 233a 90b2 973a 5637 363a a943 593a
00000160: 9a42 063a 6ca2 643a 5d5d cb37 df80 eab7
00000170: 81fb 10b7 6668 8937 f2ff 2337 650b 4d36
00000180: e0a2 beb8 ff93 c0b6 280b 3a36 226d 1f3a
00000190: a9e0 473a 49e1 7239 15b0 3b3a b886 9b3a
000001a0: b62c 743a e12d 73b9 c48a c7b3 377c 90b9
000001b0: dc93 1838 3e49 9a37 3b53 1e37 48be fa37
000001c0: 9372 c637 753c 2b37 b61b ec35 255c 1537
000001d0: 855f 0c36 acc3 8639 e439 29b9 f98e 85ba
000001e0: 3f77 b93a 2cf3 2ab9 52e1 77ba b3c3 4cba
000001f0: 608f cfba 7d0c 03bb ea3d 7b3b e782 613b
00000200: 47ad 0abc aae3 9d3c 09bb b33b d798 13bc
00000210: 53d9 7b3b 09ed 15bc 9737 59bc 699a 09b6
00000220: c0ef 6bb6 98fd 93b5 a67d 66b6 7cde c5b5
00000230: 1bb2 04b6 996f 93b6 bae8 1fb6 9207 a933
00000240: a25b 1ab5 83fb 5335 7c5f 7ab4 f450 4cb5
00000250: 0198 9934 e422 8235 652e 8d35 5fe0 ba35
00000260: 3852 2db5 fa2c 9aba 3ca1 663b 39e0 3a3b
00000270: cede 0aba 2129 2a3c 1904 343b 60da b83a
00000280: 6bc8 823b b46c a43b bc08 19b4 9b95 a834
00000290: e9ae 2035 d174 8d35 bd4f c7b5 7565 06b3
000002a0: 90b3 8c35 f691 f534 af31 a7b5 54dc 163c
000002b0: 5c53 623b 8144 19bc 4efa f939 dcb2 0dbb
000002c0: 91ba 9abb aa84 19bc 09b5 c2bb 0eb6 91bc
000002d0: 1dce 8339 9804 0a3c 475e 1d3b da1c a83b
000002e0: feed 943b 3a31 163b a26c ceba 49b8 17bb
000002f0: ed0e 90ba 3795 98b7 1a28 9db7 b20a 23b8
00000300: 4c06 c8b7 93a5 48b7 8d94 b7b7 a63c 57b8
00000310: 91fd bab7 a5cd b9b7 2037 4f3c 4496 863c
00000320: 3665 af3b 2ae2 073c ad54 0abb e87f 06bc
00000330: 0139 93bb 2eca 82bc 7be6 dbbc 695b 18b9
00000340: 5e61 2639 63f4 16b9 06ca 95b9 d362 9639
00000350: 9b74 87b8 645f bcb8 c117 6c39 0d82 1d38
00000360: a435 7435 3eba 80b5 cb8a 11b5 c93d 9db5
00000370: 1b57 5735 0618 2134 aa57 78b5 79cd b035
00000380: 46c0 b6b5 89e9 4eb7 2d1d 1f38 b5ad a937
00000390: a72e 3cb7 4c67 1e38 f382 b137 48d2 6a37
000003a0: e1ea 1338 fcfb 5f37 37e3 6dbb f0ca 83bb
000003b0: e765 81bb 17c7 f5ba 1138 85bb c727 81bb
000003c0: e07b a3ba 63b2 47bb 7e15 20bb d675 8639
000003d0: 1d3f 803b 208d 64ba 54e2 263a b6e0 b2bb
000003e0: b213 973a 8988 d5ba 4e21 f03a bc52 f1b9
000003f0: 5aa3 8338 edb0 d3ba 94a8 2c3b 281d 2c3b

em1_1.conv1.bias f4 [32]
-0.0061918804 -0.00019285818 -6.5860215e-05 -0.0012242952 -0.0011144646 -0.00033256115 -0.02575399 -0.010696848
-0.0025287047 -0.07611218 -8.423798e-05 -0.01274806 -0.005471068 -0.002887471 0.0029308903 0.03568315
-0.010147249 0.0019757994 0.0002923413 0.0004076788 0.000632362 0.00035392685 0.0024135124 -0.0051513133
-0.002212342 -0.010729041 0.008498449 0.0012336739 -0.0022183827 -0.0022026978 0.0007764236 0.005882925
00000000: 42e5 cabb f939 4ab9 6f1e 8ab8 8878 a0ba
00000010: 3a13 92ba 9a5b aeb9 08fa d2bc d541 2fbc
00000020: a0b8 25bb b4e0 9bbd eca8 b0b8 3ddd 50bc
00000030: a546 b3bb ba3b 3dbb 2e14 403b 7f28 123d
00000040: a640 26bc 6a7c 013b 6345 9939 b9bd d539
00000050: 18c5 253a 428f b939 052c 1e3b 59cc a8bb
00000060: f1fc 10bb dcc8 2fbc 143d 0b3c 3ab3 a13a
00000070: 4962 11bb 235b 10bb e888 4b3a 8dc5 c03b

em1_1.conv2.weight f4 [32, 32, 3, 3]
0.0006418223 0.00046695652 0.00021758745 -0.00010781132 0.00094034954 0.0006161814 0.00021600632 3.550077e-06
0.00027164252 -0.0062126536 0.00036821308 0.0010276441 -0.0058530997 -0.0062860935 -0.0055333446 -0.003643904
-0.0011229699 -0.006217521 -0.00022184511 0.00073300855 -1.2381946e-05 -6.593455e-05 0.0003827661 0.00031611603
-0.00069146877 0.0002061451 -0.00037268308 -9.576427e-06 5.8398973e-07 4.819728e-06 4.0145267e-05 -7.795782e-05
1.6542006e-06 -2.6768976e-06 -9.590249e-07 -2.0759614e-06 -0.001228451 0.0023959605 0.0025684454 -0.0008729631
0.003908307 0.0031346616 -0.0037660124 -0.001438363 -0.0006814466 -0.0010918805 0.012670267 0.0064432155
-0.0019997514 -0.004220716 0.012265987 -0.006348333 -0.004018071 0.0010042513 -8.491503e-06 1.4728559e-05
2.3418772e-05 -1.0841803e-05 -4.3009464e-08 1.7712924e-05 -1.6391621e-05 -1.00373845e-05 -1.7221984e-06 -2.579834e-07
7.8968037e-07 -8.660652e-08 1.7843897e-06 1.9461471e-07 4.6872024e-08 3.1211462e-07 -6.4335616e-08 -4.1533298e-08
-1.6636881e-06 2.2429979e-06 2.2779082e-05 0.00024528336 -0.00038977375 8.8875e-05 -4.5917463e-05 -5.3284788e-05
-6.742218e-05 3.8171303e-05 0.00014403342 0.0001520779 -4.3631564e-05 -2.809438e-05 -4.971085e-05 -5.722021e-05
9.5057076e-05 2.475969e-06 3.6477337e-05 0.00022272962 8.5720507e-07 4.233156e-05 -0.0009711577 1.357673e-06
-5.0476476e-05 0.0001802767 5.848354e-06 -6.6394234e-05 0.0016678876 0.0005132707 0.00026744034 0.003359667
0.0013757697 -0.001223765 0.0019529505 -0.00019236514 1.0363203e-05 2.9947645e-05 1.5796346e-05 5.95867e-06
-2.6678274e-05 1.2438672e-05 -1.4682968e-06 1.6628976e-05 4.8977363e-06 -0.00090992975 0.00062723504 0.00050454494
-0.00069791364 0.0004695368 0.0006255345 -0.002879534 -0.0022271785 -0.0019600918 -0.0046696966 0.00508816
0.00064636936 0.003019431 0.01436054 0.004172782 -0.009399354 -0.0065801255 -0.0047196858 -4.4618246e-06
-1.05580475e-05 -8.519398e-06 -4.3143996e-06 -1.6783413e-05 -1.1097419e-05 -5.4936395e-06 -1.3845325e-05 -1.0024177e-05
-1.4250021e-06 6.220528e-07 -5.520816e-07 -1.0548943e-07 -4.2840266e-08 -1.9536829e-07 -1.6283256e-07 1.2503634e-06
1.9493602e-06 0.00316302 0.0018821409 -0.0003340976 -0.00045777662 -0.0013612243 -0.0033899532 0.0027234047
0.0006917766 0.0005373872 -1.0515892e-06 -2.2796303e-07 1.2386662e-06 -5.7375547e-07 2.9401545e-07 1.8630369e-06
1.4177781e-06 5.6033485e-07 3.4748587e-07 -0.009784327 0.010726734 0.015736923 -0.011231729 -0.004444956
0.008857851 -0.01784552 -0.01126512 -0.010340551 -0.0011836553 0.0023966788 -0.0039726137 0.0024076612
0.005140606 0.0036923827 0.0029155104 -0.0016632624 -0.0012999707 -5.7766265e-05 2.4993244e-05 2.0457364e-06
-3.101852e-05 -3.5164945e-07 -1.1201699e-05 -8.7647415e-05 -7.533233e-05 -8.675153e-05 0.00988612 0.021613553
0.0097043915 -0.005094448 0.00030493026 0.008030571 -0.030880705 -0.02167389 -0.005703488 -3.5466768e-05
-8.735415e-06 -5.6512836e-05 -8.6939486e-05 -0.00012074843 -4.183871e-05 3.919726e-05 1.2982473e-05 -3.105802e-05
-9.540735e-07 1.298878e-07 -3.924809e-07 -2.7189178e-06 7.613703e-08 -4.553943e-07 1.2921764e-07 -8.855238e-08
-1.4010561e-06 -1.4278276e-05 -2.1388581e-05 -2.049777e-05 -1.8189883e-05 -1.2105671e-05 -8.820438e-06 -1.8804767e-06
-1.0392497e-06 -2.7004949e-06 -0.0024645166 -0.0041508283 -0.002948642 -0.0015017975 -0.004038595 -0.0034871155
-0.0014434766 -0.0022765065 -0.002861421 -0.0026830677 0.000630071 0.002787465 -0.0036989884 -0.011165774
-0.0010377116 -0.0013923282 -0.0024279396 -0.0017566106 -0.0041546207 -0.0011822303 -0.0002414215 -0.00042563377
00000000: f73f 283a d8d1 f439 3028 6439 c318 e2b8
00000010: ca81 763a 3c87 213a c17f 6239 dc3d 6e36
00000020: 3e6b 8e39 8493 cbbb b90c c139 04b2 863a
00000030: 5ccb bfbb 93fb cdbb 0f51 b5bb 91ce 6ebb
00000040: 9e30 93ba 59bc cbbb 189f 68b9 5f27 403a
00000050: 0ebc 4fb7 5846 8ab8 ffad c839 60bc a539
00000060: af43 35ba a728 5839 ad64 c3b9 71aa 20b7
00000070: 78c3 1c35 26b9 a136 a761 2838 497d a3b8
00000080: e605 de35 c0a4 33b6 d8b7 80b5 bf50 0bb6
00000090: fa03 a1ba 8c05 1d3b 5d53 283b 90d7 64ba
000000a0: 4111 803b e56e 4d3b 34cf 76bb 7487 bcba
000000b0: 1ba3 32ba 6e1d 8fba f496 4f3c 9c21 d33b
000000c0: 430e 03bb ef4d 8abb 47f7 483c ad05 d0bb
000000d0: 06aa 83bb 15a1 833a ba76 0eb7 ae1a 7737
000000e0: 6e73 c437 30e5 35b7 68b9 38b3 3796 9437
000000f0: bd80 89b7 3d66 28b7 4926 e7b5 f880 8ab4
00000100: 6cfa 5335 70fc b9b3 2a7f ef35 49f7 5034
00000110: 5650 4933 b590 a734 e128 8ab3 5862 32b3
00000120: e34b dfb5 6986 1636 b515 bf37 6099 8039
00000130: 8c5a ccb9 6762 ba38 8097 40b8 1b7e 5fb8
00000140: 0265 8db8 201a 2038 ad07 1739 1a77 1f39
00000150: 0901 37b8 39ac ebb7 9e80 50b8 bcff 6fb8
00000160: 6159 c738 d328 2636 3eff 1838 878c 6939
00000170: af1a 6635 2b8d 3138 4a95 7eba 4a39 b635
00000180: b4b6 53b8 a808 3d39 fa3c c436 223d 8bb8
00000190: 059d da3a 038d 063a 3c37 8c39 dc2d 5c3b
000001a0: 2c53 b43a bd66 a0ba 25fa ff3a a0b5 49b9
000001b0: 9edd 2d37 1438 fb37 6582 8437 96f0 c736
000001c0: 28cb dfb7 b0af 5037 4b12 c5b5 747e 8b37
000001d0: 3c57 a436 5a88 6eba 086d 243a 7043 043a
000001e0: 31f4 36ba 2a2c f639 e9fa 233a 90b6 3cbb
000001f0: dbf5 11bb e274 00bb 4104 99bb 94ba a63b
00000200: 1d71 293a a5e1 453b 7848 6b3c d5bb 883b
00000210: c0ff 19bc 189e d7bb 98a7 9abb c8b6 95b6
00000220: 7822 31b7 89ee 0eb7 69c4 90b6 1bca 8cb7
00000230: 0d2f 3ab7 0156 b8b6 3849 68b7 832d 28b7
00000240: b342 bfb5 25fb 2635 c232 14b5 6d89 e2b3
00000250: 5fff 37b3 6dc6 51b4 13d7 2eb4 29d2 a735
00000260: c1d1 0236 ab4a 4f3b 2bb2 f63a d229 afb9
00000270: bd01 f0b9 1c6b b2ba fa29 5ebb 267b 323b
00000280: 5758 353a 72df 0c3a 5424 8db5 00c6 74b4
00000290: 3f40 a635 2d04 1ab5 2dd9 9d34 760d fa35
000002a0: 7c4a be35 eb69 1635 188e ba34 714e 20bc
000002b0: 2fbf 2f3c b8ea 803c 4905 38bc fea6 91bb
000002c0: 8520 113c c530 92bc 5691 38bc 6a6b 29bc
000002d0: e224 9bba 9911 1d3b b32c 82bb dac9 1d3b
000002e0: 8772 a83b e7fb 713b 2612 3f3b d301 daba
000002f0: c763 aaba 0e4a 72b8 95a8 d137 7c49 0936
00000300: e219 02b8 55ca bcb4 eeee 3bb7 59cf b7b8
00000310: bdfb 9db8 5fee b5b8 65f9 213c e80e b13c
00000320: 2bff 1e3c 54ef a6bb 0cdf 9f39 a892 033c
00000330: 88f9 fcbc 718d b1bc 53e4 babb 27c2 14b8
00000340: 528e 12b7 3208 6db8 4853 b6b8 523a fdb8
00000350: f97b 2fb8 bd67 2438 4ccf 5937 4c44 02b8
00000360: b70d 80b5 4977 0b34 2ab6 d2b4 a776 36b6
00000370: c680 a333 ea7c f4b4 13bf 0a34 302a beb3
00000380: ec0b bcb5 ba8c 6fb7 a16b b3b7 a0f2 abb7
00000390: 7a96 98b7 7619 4bb7 7efb 13b7 b064 fcb5
000003a0: 597c 8bb5 263a 35b6 ba83 21bb ac03 88bb
000003b0: 013e 41bb f6d7 c4ba 3156 84bb 1788 64bb
000003c0: 0a33 bdba 7131 15bb ae86 3bbb 68d6 2fbb
000003d0: 592b 253a e7ad 363b ba6a 72bb a7f0 36bc
000003e0: d303 88ba c87e b6ba 111e 1fbb 123e e6ba
000003f0: 7c23 88bb 11f5 9aba 1726 7db9 9927 dfb9

em1_1.conv2.bias f4 [32]
0.0030070373 0.0019650604 -8.88082e-06 -0.001594919 -4.6495015e-06 0.00014675998 -0.013205188 0.0024083832
0.00016896438 -0.0066700554 -0.00041276513 0.0039622677 -0.0030080113 -0.0012672262 0.002482257 0.0028828613
-0.009126073 -0.00024566634 0.0017629368 -0.0002177971 0.00079871697 -7.444733e-06 5.395592e-05 -0.042738114
0.00046594653 -0.020845259 0.007892173 -0.0015725559 -0.00033911274 -0.00056427537 -0.0002603775 -0.0005509258
00000000: b711 453b 3ec8 003b d5fe 14b7 9a0c d1ba
00000010: ea02 9cb6 95e3 1939 935a 58bc f7d5 1d3b
00000020: 082c 3139 7b90 dabb 6668 d8b9 e9d5 813b
00000030: 0e22 45bb 0e19 a6ba 5dad 223b 63ee 3c3b
00000040: 8685 15bc c7cc 80b9 5812 e73a 7760 64b9
00000050: fd60 513a c5cd f9b6 ba4e 6238 290e 2fbd
00000060: 494a f439 adc3 aabc 2c4e 013c 381e ceba
00000070: f1ca b1b9 e1eb 13ba 4783 88b9 016c 10ba

em1_1.conv3.weight f4 [32, 32, 3, 3]
-0.00028820793 -0.0003296989 -0.00018689391 -5.0130606e-05 -0.0004325012 -4.6915946e-05 0.00022429758 0.00023250778
-1.5153109e-05 -0.0010799507 0.0017273775 -0.001240013 -0.0021763977 -0.0022046082 -0.0045463894 0.00026801575
-0.00030049102 -0.0012018447 -0.00020259175 -0.00017187021 -0.00027323313 0.00010039613 -0.00024449354 5.4378663e-05
-0.0001809682 -0.00021003518 -0.00017013375 6.158913e-05 7.9603684e-05 3.7776394e-05 1.4799205e-05 -3.0005538e-05
1.6328664e-06 1.43183115e-05 -1.4588444e-06 -1.5054783e-05 0.0002995889 0.00072853715 -0.00048028387 0.00037154683
-0.0040038265 -0.00029825539 -0.0009598107 -0.000304115 -0.0009260804 0.010142084 0.005416792 0.008882455
0.0031277146 0.028134927 0.0053131836 0.013248281 0.0056608976 0.012417761 -2.5487976e-05 -1.0980712e-05
-1.9081961e-05 -1.8384364e-05 9.334451e-06 -8.362786e-06 -2.7239368e-05 -4.58435e-06 -2.0484997e-05 5.6514743e-08
5.494519e-07 5.3321065e-07 2.6031746e-06 1.1792104e-06 5.0027165e-07 -2.5960226e-06 7.923493e-07 7.105423e-08
-2.2658053e-06 -2.2717411e-05 2.871061e-06 0.00010949065 -0.0003927511 -4.551103e-05 9.339396e-05 -1.9647441e-05
-4.3127762e-05 0.000107143314 0.00031188637 -0.00019590519 9.964641e-05 -9.34219e-05 0.0001006106 1.8334773e-05
6.8946565e-06 0.0001061375 5.001851e-05 -1.8226498e-05 -5.0925855e-06 6.152367e-05 -0.00010682867 6.8503823e-06
-2.1483722e-05 6.38009e-06 1.751445e-05 -0.00013509335 8.6983055e-05 8.106062e-05 -0.0005266236 0.00020739292
-6.040926e-05 -0.0009799767 -0.00049123826 -0.0007157969 2.6127678e-05 2.1239011e-05 1.8189883e-05 2.441285e-05
1.166155e-05 1.8633244e-05 2.2752058e-05 2.3796865e-05 2.8916766e-05 0.00079317763 0.0008343672 0.0006050264
0.00094584865 -0.004626246 0.0004826826 0.00080378004 0.00030779952 0.0005900085 0.0064428654 0.0076411352
0.003525077 0.007250067 -0.043226372 0.005136429 0.006456125 0.006741674 0.005457515 -4.782401e-06
-4.148259e-06 -5.920973e-06 -4.3296336e-06 -5.7574866e-06 -4.033999e-06 -2.2711934e-06 -3.4765667e-06 -4.5904726e-06
-1.3257636e-06 -1.4210846e-07 1.0295217e-06 -1.6461323e-06 9.803341e-07 1.9477677e-06 -1.2693242e-06 -8.854108e-07
-3.7424502e-07 0.004691981 0.0033112313 0.0038077228 0.0015708052 -0.0053018774 0.0031334837 0.0041599222
0.0025969208 0.0056718653 6.3071457e-07 7.95287e-07 7.4855615e-07 1.0174501e-07 -1.7606912e-07 -1.9404345e-06
1.2361475e-06 -1.2483604e-06 1.5454492e-06 -0.0016190197 -0.0011795869 -0.0060820403 -0.0028217542 0.019604646
-0.004848836 -0.0057970034 -0.009023693 -0.008569184 -0.013950306 -0.013409284 -0.013679711 -0.012935298
-0.0018863286 -0.012038694 -0.012559726 -0.013807868 -0.013876253 -3.6985974e-05 -2.5655003e-05 -2.591484e-05
-9.120219e-06 3.7443242e-06 -1.2877962e-05 -7.1034454e-05 -8.2370825e-05 -6.226794e-05 -0.0011467593 -0.0041512353
-0.0049502947 -0.0092014205 -0.008079895 -0.011255776 -0.0077932025 -0.0091920765 -0.010296975 -0.0001412238
-6.874572e-06 -0.000115086084 -9.0091435e-06 -4.6559322e-05 7.959291e-05 0.00013809152 0.0002067044 0.00010403598
-1.10558545e-07 -2.955536e-06 -1.6462182e-06 -9.901138e-07 1.0591604e-06 1.3801696e-06 1.046744e-06 9.637912e-07
2.804774e-07 -1.1863826e-05 -1.640244e-05 -2.6905831e-05 -1.9683226e-05 -1.3919142e-05 -1.585488e-05 8.2975375e-06
2.2833235e-06 -4.024813e-06 0.0004385911 2.0142925e-05 0.0006611781 -0.00022390117 -0.0059551066 0.0011253972
0.002210586 0.0018167614 0.0023673945 0.00018385307 0.0051531224 -0.00022147624 0.0040015727 -0.0038799131
0.0008356535 0.0021523654 0.002846644 0.00095207087 0.0004735809 -0.0022974839 -0.0005027906 0.004623515
00000000: 9d1a 97b9 70db acb9 f4f8 43b9 5443 52b8
00000010: 54c1 e2b9 9dc7 44b8 6c31 6b39 55cd 7339
00000020: 1c3a 7eb7 228d 8dba 2c69 e23a ef87 a2ba
00000030: e5a1 0ebb 307b 10bb e1f9 94bb 7784 8c39
00000040: 398b 9db9 3787 9dba cf6e 54b9 0f38 34b9
00000050: bb40 8fb9 c38b d238 5e2f 80b9 a514 6438
00000060: 48c2 3db9 e43c 5cb9 ee65 32b9 6a29 8138
00000070: e7f0 a638 1872 1e38 1a4a 7837 67b4 fbb7
00000080: dd28 db35 ae38 7037 83cd c3b5 cd93 7cb7
00000090: 2412 9d39 4dfb 3e3a 9cce fbb9 2ccc c239
000000a0: 8832 83bb 295f 9cb9 ce9b 7bba a071 9fb9
000000b0: 34c4 72ba fc2a 263c 587f b13b b787 113c
000000c0: 58fa 4c3b 387b e63c 371a ae3b 510f 593c
000000d0: 0d7f b93b dd73 4b3c 03cf d5b7 cd39 38b7
000000e0: 3312 a0b7 1f38 9ab7 299b 1c37 e44d 0cb7
000000f0: 1980 e4b7 44d3 99b6 32d7 abb7 9eba 7233
00000100: 0c7e 1335 f521 0f35 33b2 2e36 5c45 9e35
00000110: 684a 0635 5437 2eb6 d4b1 5435 7a96 9833
00000120: 3d0e 18b6 4591 beb7 74ac 4036 589e e538
00000130: 29ea cdb9 19e3 3eb8 80dc c338 8fd0 a4b7
00000140: 15e4 34b8 21b2 e038 ae84 a339 e66b 4db9
00000150: 42f9 d038 80eb c3b8 e8fe d238 a0cd 9937
00000160: a658 e736 2396 de38 f7ca 5138 1be5 98b7
00000170: fae0 aab6 4506 8138 3509 e0b8 56dc e536
00000180: f137 b4b7 8e14 d636 ffeb 9237 d8a7 0db9
00000190: ac6a b638 17ff a938 1d0d 0aba 9d77 5939
000001a0: f35f 7db8 9072 80ba 71c6 00ba 51a4 3bba
000001b0: c32c db37 6e2a b237 7a96 9837 32ca cc37
000001c0: faa5 4337 964e 9c37 acdb be37 619f c737
000001d0: 4892 f237 40ed 4f3a 6fb9 5a3a a29a 1e3a
000001e0: d4f2 773a c497 97bb 9010 fd39 c4b4 523a
000001f0: 2760 a139 cdaa 1a3a ac1e d33b 7d62 fa3b
00000200: fa04 673b f891 ed3b 230e 31bd 7d4f a83b
00000210: e78d d33b 43e9 dc3b f4d4 b23b 8378 a0b6
00000220: 4631 8bb6 c5ac c6b6 4547 91b6 6f30 c1b6
00000230: ca5b 87b6 ce6a 18b6 f64e 69b6 dc07 9ab6
00000240: e4f0 b1b5 7a96 18b4 192e 8a35 adf0 dcb5
00000250: 0694 8335 65b6 0236 a65d aab5 f8ac 6db5
00000260: d8eb c8b4 30bf 993b 3e01 593b fd8a 793b
00000270: 7ae3 cd3a 5fbb adbb 225b 4d3b f54f 883b
00000280: 1a31 2a3b 0edb b93b 604e 2935 b57b 5535
00000290: 63f0 4835 e97e da33 830d 3db4 6938 02b6
000002a0: b4e9 a535 568d a7b5 3b6d cf35 4935 d4ba
000002b0: 5e9c 9aba da4b c7bb 2eed 38bb ec99 a03c
000002c0: fce2 9ebb caf4 bdbb 1dd8 13bc c365 0cbc
000002d0: d38f 64bc 9db2 5bbc de20 60bc 92ee 53bc
000002e0: af3e f7ba f13d 45bc 4fc7 4dbc 653a 62bc
000002f0: 3959 63bc 6321 1bb8 b335 d7b7 b263 d9b7
00000300: 0b03 19b7 0047 7b36 6d0e 58b7 55f8 94b8
00000310: 80be acb8 d995 82b8 db4e 96ba 1607 88bb
00000320: 1536 a2bb 8ec1 16bc 8961 04bc 256a 38bc
00000330: 1f5e ffbb 5d9a 16bc a5b4 28bc 7a15 14b9
00000340: 20ac e6b6 5f5a f1b8 fa25 17b7 b148 43b8
00000350: 1eeb a638 a9cc 1039 cabe 5839 e42d da38
00000360: 346c edb3 b957 46b6 a0f3 dcb5 0de4 84b5
00000370: 7928 8e35 443e b935 da7d 8c35 9d5b 8135
00000380: 8594 9634 bf0a 47b7 f997 89b7 d5b3 e1b7
00000390: 681d a5b7 4286 69b7 1800 85b7 a735 0b37
000003a0: 333b 1936 e10c 87b6 b3f2 e539 9af8 a837
000003b0: e952 2d3a 03c7 6ab9 0e23 c3bb 1082 933a
000003c0: 7bdf 103b 6620 ee3a 4a26 1b3b afc8 4039
000003d0: 86db a83b 133c 68b9 a01f 833b 2446 7ebb
000003e0: c20f 5b3a b30e 0d3b c38e 3a3b 6594 793a
000003f0: f44a f839 6291 16bb b5cd 03ba db80 973b

em1_1.conv3.bias f4 [32]
0.009314192 -0.0002067607 9.414896e-06 0.001248957 0.00061206886 -0.0009197802 0.000311996 0.0024800468
-0.0020513409 -0.0048644803 0.005732462 -0.015342437 -0.0014893304 -0.0005180137 0.0024834077 0.022445928
0.00027677268 0.0006803644 0.0008094505 0.00074995775 1.9175699e-05 -5.6061976e-06 7.372829e-05 -0.001156902
0.0037652727 -0.04593762 0.008711016 -0.0015981579 0.00026538176 -0.0008125961 -5.2656696e-06 0.0034061626
00000000: 8e9a 183c e7cd 58b9 acf4 1d37 0bb4 a33a
00000010: 3f73 203a 681d 71ba 6593 a339 4888 223b
00000020: ca6f 06bb 3866 9fbb 60d7 bb3b d85e 7bbc
00000030: a335 c3ba 50cb 07ba abc0 223b 86e0 b73c
00000040: cd1b 9139 7b5a 323a 4e31 543a d098 443a
00000050: 80db a037 df1c bcb6 939e 9a38 31a3 97ba
00000060: cbc2 763b 1629 3cbd a6b8 0e3c 4879 d1ba
00000070: f022 8b39 6704 55ba c2af b0b6 ed39 5f3b
